cnn-MNIST.pt (torch, 569136 bytes, 8 tensors)

weight f4 [16, 1, 5, 5]
000000 14 bd 7d 3c 62 28 f7 bc e0 b0 ca 3d 62 53 1e be
       0.015486974 -0.030170623 0.098970175 -0.15461496
000010 19 83 a0 bd 90 37 d6 3d e8 fc 06 be 36 65 bf 3d
       -0.07837505 0.104598165 -0.13182414 0.09345476
000020 7f 42 b9 bd e1 ca 89 3d a4 84 ba 3c 41 b7 14 be
       -0.09045886 0.06728149 0.022768326 -0.14523031
000030 2c 27 00 be 61 6c ef 3c af e0 22 be e2 64 ad bd
       -0.12514943 0.029226484 -0.15906022 -0.084665075
000040 74 c6 0d 3e b9 40 dd bd 01 4a 34 3a 52 df 18 be
       0.13845235 -0.108033605 0.00068774825 -0.1492894
000050 13 dd 45 3e 16 65 2a be e0 8c 36 be d6 0e 9a 3c
       0.19322614 -0.16640124 -0.17827177 0.018805902
000060 ea 31 c7 bc 79 3a 00 3e b4 fd 24 be 92 88 4a 3d
       -0.024315793 0.12522306 -0.16112405 0.04944665
000070 b1 78 0f 3e 66 10 6c 3d df 80 cf 3c 60 b0 0a be
       0.14010884 0.057632826 0.025330005 -0.13543844
000080 7f 51 49 be 09 ba ca bc 44 72 58 3b a0 36 2a bd
       -0.19659995 -0.024746912 0.0033027092 -0.041556
000090 68 2e 58 be 87 0e 27 bd b8 5b 6b be 7b a5 fc bc
       -0.21111453 -0.04078534 -0.22984207 -0.030840626
0000a0 8c d9 46 bb 63 c4 9d 3d 24 09 36 be 22 42 2f 3e
       -0.003034207 0.077034734 -0.17776924 0.17115071
0000b0 ae 81 3c 3d f1 3c 4e 3e ee 5a 61 3e 18 37 2e 3e
       0.04602211 0.20140435 0.22007343 0.17013204
0000c0 93 59 1c be 28 24 98 bd 0c b5 84 bd 06 39 ad bb
       -0.15268545 -0.07428771 -0.064798445 -0.0052863387
0000d0 78 68 77 bd 18 51 07 be 5a b5 e2 3d fe 33 19 3c
       -0.060402364 -0.13214529 0.11069746 0.009350775
0000e0 26 04 34 be 63 b2 fd bb 6f 84 d1 3d a7 d7 2f be
       -0.17579708 -0.0077422126 0.10230338 -0.17172109
0000f0 bc 54 0a bd 12 eb d3 3d 28 7a 16 be 7a e1 64 be
       -0.033772215 0.103475705 -0.14695036 -0.22351637
000100 13 cb 58 be 36 8c 6c 3e b3 7c 12 3c 4a ad 11 3e
       -0.21171217 0.23100361 0.008940863 0.14226261
000110 53 86 87 3d ec b6 7d 3d 59 af 0e bc 9b 96 fe 3c
       0.06617417 0.061942026 -0.008708798 0.031077674
000120 14 ec 89 3e 8a d3 a8 3e a7 8f 08 3e 7d c0 af bd
       0.26937926 0.32973891 0.13336049 -0.08581636
000130 18 5c c4 3d d5 57 26 3e 30 91 ab 3d 9b 8e 23 3e
       0.09587878 0.16244443 0.08377302 0.15972368
000140 5b d1 0d be b7 8f 09 bd 6a 10 54 3b 3a c2 0d 3c
       -0.13849394 -0.033584323 0.0032358416 0.008652264
000150 1c 12 8d bb a5 dd 26 be 38 09 be 3d 09 7c fa bc
       -0.0043051373 -0.16295488 0.09279102 -0.030576723
000160 10 0b 1e 3e 4f 9d ee bd f8 ed 25 bd a4 7b 0a be
       0.15433908 -0.11651098 -0.040510148 -0.13523728
000170 ad 99 f7 bd 6b e9 40 be 7a 96 93 3c c6 cc ad bc
       -0.12089858 -0.18839042 0.018016089 -0.021215808
000180 55 5e 12 3e d3 e5 31 be 22 d3 6c bc 2e f6 eb 3d
       0.14293797 -0.17372827 -0.014454635 0.115215644
000190 37 01 32 bc aa 9a f3 bb 2e c8 08 be dc 48 49 bd
       -0.010864547 -0.007434209 -0.13357612 -0.04914175
0001a0 b2 b9 37 bd bb 44 8b 3e 9d 59 54 3e e9 25 ec 3d
       -0.044854827 0.27200875 0.2073731 0.11530668
0001b0 eb 61 eb 3d 3f e2 15 be cb a9 a2 3d 6a fa a5 bd
       0.11493286 -0.14637087 0.07942542 -0.08104403
0001c0 44 b8 97 bd 5a 67 66 bd 4e f5 dd bd e4 63 52 bb
       -0.07408193 -0.056250907 -0.10837804 -0.0032102996
0001d0 84 ca 9d 3e 55 13 b5 3e fc 9e 22 3e 8e 1f 7d 3e
       0.3081857 0.35366312 0.1588096 0.24719068
0001e0 ef 55 d8 bb 72 40 83 bd e7 42 b6 3e 6c 7c 63 3e
       -0.006602041 -0.06408776 0.35597917 0.22215432
0001f0 6f df 64 3e 0d 35 eb 3d 57 82 f0 3d a4 f5 59 3e
       0.22350858 0.11484728 0.1174361 0.2128511
000200 77 0f 79 3d 5d f4 a3 3e 81 bf ea bd d9 6f 56 3e
       0.060805764 0.32022372 -0.11462308 0.20941104
000210 a4 58 1f 3e 72 a0 c3 bd 2a 80 53 3e 76 f6 8d 3d
       0.15561157 -0.09552087 0.2065436 0.06931774
000220 38 1c 9b bd 51 21 45 3d dc e5 ed bc 64 d7 52 3c
       -0.07573742 0.048127476 -0.02904027 0.012868736
000230 13 89 de 3d 14 f6 5d be 12 dc 42 bd 9f 0a 44 be
       0.108659886 -0.21675903 -0.047573157 -0.19144677
000240 52 42 ad 3d b3 38 0b be 81 20 58 bd d2 b6 56 3d
       0.08459915 -0.13595848 -0.052765373 0.052420445
000250 b4 6f 88 bd 86 84 0f bd 06 fc e9 bd 2f 7b fc bd
       -0.06661931 -0.035038494 -0.11425023 -0.12328183
000260 01 65 0b be c5 df 64 3d 7c 50 82 3d df 7e c4 bd
       -0.13612749 0.055877466 0.063630074 -0.09594511
000270 da f4 4a be 9c 55 d5 3d 7c 74 a9 bd 45 7d 5b bd
       -0.19819966 0.10416719 -0.08274171 -0.053586263
000280 cb a4 b2 bb 1a 55 22 bc 9d 85 8e 3d 56 ad 46 3e
       -0.0054517738 -0.009907985 0.069590785 0.1940206
000290 44 37 e6 bd 3a 6d 5b 3e 94 6e d7 3d b1 0c d6 3d
       -0.1124101 0.21428385 0.10519138 0.104516394
0002a0 52 da ca bd 65 63 64 3e 34 d4 62 3e bd 44 13 3e
       -0.099049225 0.22303541 0.22151262 0.1438169
0002b0 f7 82 d4 bd 8b a6 e0 bd 56 af 00 be 24 79 b4 bd
       -0.10376542 -0.109692656 -0.12566885 -0.08812168
0002c0 cf f0 92 3d 4e 8f 63 3e e4 34 8b 3d 0a 59 6e 3e
       0.07174837 0.22222635 0.067971975 0.23276153
0002d0 f5 cb 39 bd 97 ad 87 3e c2 40 30 3e 4d d6 c3 3d
       -0.045360524 0.26499626 0.17212203 0.09562359
0002e0 01 75 23 be 95 fd e6 bd df 40 0c be 30 74 c8 3d
       -0.15962602 -0.11278836 -0.13696621 0.09787786
0002f0 c3 07 29 be 7c b1 4a be ab 24 0f be 48 b5 28 3c
       -0.16506867 -0.19794267 -0.13978831 0.010297127
000300 53 82 55 3d 67 f7 02 be 34 34 14 3e 16 09 d7 3d
       0.05212624 -0.12789689 0.14473039 0.1049978
000310 db d9 4d be f9 6c be 3d df d5 e6 3c 75 2f ef bd
       -0.20102637 0.09298129 0.028178154 -0.116789736
000320 1b 97 23 3e 13 83 3c 3e ac 25 ad 3e 8d 63 29 3e
       0.15975611 0.18409376 0.33817804 0.16541882
000330 ab 15 d4 3d 4a 56 9e 3e 4c 01 9a 3e 05 bd 03 3e
       0.10355695 0.30925208 0.30079114 0.12865074
000340 53 5d 5e 3b 9d 04 f0 3d c6 42 90 3e 5a 0e 41 3e
       0.0033930137 0.1171963 0.28175944 0.18853131
000350 25 a6 c2 3e 68 0a 93 3e 72 99 38 3e c6 8d 4f be
       0.38017383 0.28718877 0.18027285 -0.20268926
000360 2b 67 ac 3c e0 da f9 3e e8 96 24 3e 9c f3 a6 3e
       0.021045288 0.487998 0.16073191 0.32607734
000370 fd ef 48 be 39 92 62 3e 61 83 a0 3e 32 75 d5 3e
       -0.19622798 0.22126092 0.31350234 0.41690975
000380 61 cf 83 3e bf 52 84 bd b1 d3 41 bd da c6 e7 bc
       0.25744155 -0.06461095 -0.047321025 -0.028293062
000390 8b 3a 5b 3e 8e f8 78 3e 02 94 4b 3e 00 1e 7b 3d
       0.21409051 0.24313566 0.19880679 0.061307907
0003a0 f2 84 98 3d 06 16 6b 3e 1a 33 fc 3d d8 08 25 3e
       0.07447232 0.2295762 0.12314434 0.16116655
0003b0 23 ee 83 3e bd c4 be bc 3e f3 8d 3b 4b 9b 19 be
       0.2576762 -0.023287171 0.0043319752 -0.15000646
0003c0 e9 cc 97 3e c3 f5 76 3d c6 5c 97 3e ee 89 2b 3d
       0.29648522 0.06029297 0.29562968 0.041879587
0003d0 4a 34 7b 3e 09 52 43 3e 8f 19 82 3e 6c 80 b2 3e
       0.24531665 0.19074263 0.25410125 0.34863603
0003e0 a9 8c 6f 3e 49 7d a4 bd b2 29 37 3e 53 1b 22 be
       0.23393501 -0.08031709 0.17886999 -0.15830736
0003f0 b5 eb 10 be c7 be 29 be f2 ef 5b 3d 7d 91 d1 3d
       -0.14152415 -0.16576682 0.053695627 0.10232828

bias f4 [16]
000000 30 1c ff bd 50 ad 53 3e 96 15 d7 3d 10 a3 c3 bd
       -0.12456548 0.20671582 0.10502164 -0.09552586
000010 8c 01 57 3b 07 ff 2d 3e 8f 05 07 be e0 b3 9a 3d
       0.0032807318 0.16991816 -0.13185714 0.0755384
000020 5a e1 ab 3d 1b d3 b7 3b 65 20 f4 bd 08 67 32 3e
       0.08392592 0.0056098825 -0.11920241 0.17422116
000030 cc 52 fc bd 90 e1 c1 3c 6d 01 bc 3d b4 f1 56 3c
       -0.1232048 0.023667127 0.091799594 0.01311915

weight f4 [32, 16, 5, 5]
000000 ac 6a be bc da 32 16 3d 30 e6 4f 3c de 6e 3f bd
       -0.023244224 0.03666959 0.012689158 -0.04673659
000010 cf 32 d5 bb b7 20 c8 bc 6f 1c c1 bc 3e 23 2b bd
       -0.006506301 -0.024429662 -0.023573129 -0.041781656
000020 a3 80 0a 3d 93 1f 10 3c a4 6f 35 3d 8c a1 2f bd
       0.033814084 0.00879659 0.044295922 -0.042878672
000030 8b ed 5b 3c a9 2c f4 3c e8 f1 44 bd c9 bf 81 bc
       0.013423334 0.029806452 -0.048082262 -0.01583852
000040 31 80 3a bd 72 23 09 bd 7c 2a 9d bc 2e 78 2d 3c
       -0.04553241 -0.03348107 -0.019185297 0.010587735
000050 d3 65 44 bd 12 02 fa bc c6 62 e5 3c 8d 0e f9 3c
       -0.04794867 -0.030518565 0.0280012 0.030402446
000060 38 29 32 3d 7a ba 10 bd 44 05 d4 3c 55 9b 41 3c
       0.04349634 -0.035334088 0.025881417 0.011816819
000070 13 f8 8b 3b fc a8 4b 3d 58 2a 66 3b 35 9a 53 3d
       0.004271516 0.049721703 0.0035120454 0.051660735
000080 31 a7 f9 3a ed 9c f1 bc ac 42 bb 3c 07 ef 99 bc
       0.0019047019 -0.029493773 0.02285894 -0.018790735
000090 0e d1 ed 3c b0 d9 4c bc a5 96 e6 3c e6 0e 9f bc
       0.02903035 -0.012503073 0.028148005 -0.019416284
0000a0 00 f6 d4 3c 65 e7 f6 3c 15 72 46 3d 65 55 24 bd
       0.025996208 0.030139634 0.04844864 -0.0401205
0000b0 67 5e 31 bd ee 89 81 bc 37 63 1c 3d 48 c6 77 3c
       -0.04330292 -0.01581284 0.038180556 0.0151229575
0000c0 59 03 cd 3c a7 f0 22 3c fe ed 32 bd b0 4c 15 3d
       0.02502601 0.009945071 -0.043684 0.036450088
0000d0 a1 e5 9d bc 8b 9f 53 3d 2f f1 c4 bc 2c 96 51 bb
       -0.019274535 0.051665824 -0.024040787 -0.0031980379
0000e0 3c fb b3 3c c9 58 9e 3c 20 19 50 3d be 9a 16 3d
       0.021970384 0.019329445 0.05080521 0.036768667
0000f0 6f 8b ca bc 24 17 ec bc d9 35 12 bd eb 17 c0 bc
       -0.02472469 -0.028819628 -0.035695884 -0.023448905
000100 75 aa 9e bc 95 d1 e4 3b 65 e7 24 3d d9 e2 e0 3c
       -0.01936839 0.006982992 0.040259738 0.02745192
000110 1d 9e 14 3d a1 92 8a bc 1b d1 a8 bc 8c ff d5 3c
       0.0362836 -0.016915621 -0.020607522 0.02612283
000120 3d 95 08 3d e5 1e 36 bd df ab 38 bd 52 7f fa bc
       0.03334545 -0.044463057 -0.045085784 -0.03057829
000130 26 b5 9f bc e0 2e 9e 3c 73 4e 4a bd b7 28 0a bd
       -0.019495558 0.019309461 -0.04939122 -0.033730235
000140 1c 7b 92 bc 00 d5 17 bd 9a db 35 3d 1b 3a 54 bd
       -0.017880969 -0.037068367 0.04439888 -0.051813226
000150 6e b0 9f 3c b1 fc 70 bb 54 8e a4 bb e0 1f bf 3b
       0.019493308 -0.003677171 -0.0050218496 0.005832657
000160 fd 82 25 bd 34 a0 3c 3d c8 f8 2f 3d 1b ba 97 bc
       -0.040408123 0.04605122 0.042961866 -0.01852136
000170 e4 51 1f 3b aa d5 46 bc a7 c8 27 bd b5 bb df 3c
       0.0024310285 -0.012135902 -0.04096284 0.027311185
000180 40 5f 81 3c 8c ae 44 bd 21 3d 9c bc df 69 99 bc
       0.015792489 -0.048018023 -0.019072117 -0.018727241
000190 37 8f 0d 3d 3c fe 05 bd ee 3f 5a 3c d0 b1 7e bc
       0.03456041 -0.03271316 0.013320906 -0.0155453235
0001a0 6e 59 03 3d 2b 8c 92 bc 7f f0 ab 3c c1 93 29 bc
       0.03206771 -0.017889103 0.0209887 -0.010350169
0001b0 4f 26 86 3d a1 d4 32 3d 4b 72 51 bd ac fe 99 bc
       0.065502755 0.04365981 -0.05113439 -0.018798195
0001c0 27 66 56 3d 2f f2 25 3d 9b 82 28 3b 0c e3 37 bc
       0.052343514 0.040514167 0.0025712613 -0.011223566
0001d0 2c 7e 21 bd c4 0b c4 3c 6b b6 48 3d 29 dd 06 3d
       -0.039426968 0.023931392 0.049002092 0.03292576
0001e0 3e df 60 3c fe bb d9 3b c9 c5 73 bd a2 63 c8 bc
       0.0137251 0.006644725 -0.059514794 -0.024461571
0001f0 47 69 39 bd 64 55 0b bc c1 6a 81 bc 6c 18 28 3d
       -0.045266416 -0.008504245 -0.015797975 0.041038916
000200 b0 e0 80 ba e0 fe 8c 3c 64 33 be bc 02 d4 06 bd
       -0.0009832587 0.017211378 -0.023217864 -0.03291703
000210 82 1a 2d 3d 7a 43 6a 3c f2 cf bd 3b 97 25 5b 3c
       0.042261608 0.014298314 0.0057926113 0.013375661
000220 15 65 a2 3c 8b 3b 81 3d 50 14 3b 3d cd e7 bb bb
       0.01982359 0.06310185 0.04567367 -0.00573442
000230 0e 78 15 3d 23 3d 8c 3c 10 61 8a 3b a9 0f 79 3d
       0.036491446 0.017118996 0.0042229965 0.06080595
000240 97 20 51 3d 86 60 5e 3c b1 d4 a7 bc e9 81 04 3d
       0.05105647 0.013572818 -0.020487161 0.032350454
000250 32 a8 74 3d ec ae 9f bc ee 65 25 3d da 27 21 bd
       0.059730716 -0.019492589 0.04038041 -0.039344646
000260 ec d5 15 bd 84 92 2a bd 54 00 41 3c 82 2f 14 bd
       -0.036580965 -0.041643634 0.011779863 -0.03617812
000270 04 e3 43 3d 59 f8 21 3d d3 78 ce 3c 02 93 04 3c
       0.04782392 0.039543483 0.025204098 0.00809169
000280 31 6e 19 3c a5 59 c5 3c 4f cf 1e 3d 6e 75 02 bc
       0.009364651 0.024090597 0.038771924 -0.007962568
000290 19 ee 56 3c 05 0b d2 bc d1 89 c6 3c bc 15 11 3d
       0.01311829 -0.02564002 0.024235638 0.03542112
0002a0 96 db d5 bc ae e4 15 3c 0f 6e d1 3c a2 ee 17 bd
       -0.026105683 0.00914876 0.025565175 -0.037092812
0002b0 04 37 a4 3b b9 4d 23 bd fc 35 89 3b 68 c5 28 bd
       0.005011441 -0.039869044 0.0041873436 -0.041203886
0002c0 99 5a 2e bd fa 7d 27 bd 14 f9 af bb 05 c3 0c bd
       -0.04256687 -0.040891625 -0.0053702686 -0.034365673
0002d0 b3 f0 cf 3b b6 f5 47 bd 00 f3 34 bd 82 e6 1a bd
       0.0063458323 -0.048818313 -0.044177055 -0.037817486
0002e0 cf 35 28 bd 6e 87 29 3d ac 45 31 bd 97 84 8b bc
       -0.04106694 0.04138892 -0.043279335 -0.017030997
0002f0 a9 2e 1d 3d 94 25 8e 3c 7a cb 69 3c ba 0a fe 3c
       0.038374577 0.017351903 0.014269704 0.031010974
000300 c1 f0 1c 3d 29 a8 a3 3c c0 af 6e 3d 40 90 fa ba
       0.03831554 0.019977646 0.058273077 -0.0019116476
000310 5b 33 2b 3c 2a d6 1c bc f0 93 36 bc 74 3d 89 3c
       0.010449256 -0.009572545 -0.0111436695 0.016752936
000320 c5 50 8d 3c 4a bb a0 3b d4 92 19 3d ac d7 80 ba
       0.017250428 0.004905139 0.03749354 -0.00098299
000330 e5 c0 77 bd 10 75 46 bd 6a 47 89 3b f0 90 8c 3d
       -0.060486693 -0.048451483 0.0041894214 0.06863582
000340 19 ca 05 3d ba c5 c0 3c 68 61 e8 bb 3f 15 42 bd
       0.03266344 0.023531783 -0.00709169 -0.047383543
000350 d9 2b a4 3d 1a e0 c6 3d 21 91 ae 3c 8e 7c 03 bd
       0.08016176 0.09710713 0.021309437 -0.032101206
000360 76 1d 9a 3b cd a3 d0 3c b2 a8 9d 3d a1 e1 59 bb
       0.004703219 0.025468731 0.07698192 -0.0033246058
000370 3d 11 c8 bc 7e 08 ae bd 28 bd 1d 3d 3f 6a 72 bb
       -0.024422282 -0.084977135 0.03851047 -0.0036989597
000380 76 97 66 3b 3b c0 85 3b 52 d1 d7 ba 0d f7 1b 3d
       0.0035185493 0.0040817535 -0.001646558 0.038077403
000390 22 7a fe 3c 00 88 18 bd af a0 fb bb a8 ba b0 3c
       0.031064097 -0.037239075 -0.007679067 0.02157338
0003a0 26 41 0d bd 3c 48 91 3d 7e c9 b0 bb 98 bd 4f bd
       -0.03448596 0.07093856 -0.0053951135 -0.05071792
0003b0 f7 20 78 bc 29 8e 91 bc 75 91 89 3d de 2d 6d 3c
       -0.015144578 -0.017767983 0.06717197 0.014476268
0003c0 bc 41 60 3a fc f8 ca 3c 2f f9 f5 3c 14 bf 09 3d
       0.0008554717 0.024776928 0.030026047 0.033629492
0003d0 c6 50 f7 3c ac ab 99 bc 37 77 ce bc d6 ab d9 bb
       0.030189883 -0.018758617 -0.02520333 -0.006642799
0003e0 70 92 40 3d e1 b3 53 bd 69 e1 69 ba 6f ca 57 3c
       0.047014654 -0.051685218 -0.00089218334 0.0131708225
0003f0 c3 9c 8a 3b cc 4c d3 3c 5c 67 1e 3b 3d fc 80 bc
       0.0042301132 0.025793456 0.0024170494 -0.015745277

bias f4 [32]
000000 1c a3 35 3d da 2e d4 3c 0a 68 01 3d 0e 52 00 bd
       0.044345006 0.025901247 0.03159336 -0.031328253
000010 59 8b 8f bb 2a b4 f2 bc 3b 75 36 bb 3c a2 6a 3c
       -0.004380625 -0.029626925 -0.002784087 0.014320906
000020 1b 59 1b bd 12 03 09 3d 3a fe 16 3d b0 b8 e4 bb
       -0.037926774 0.033450194 0.036863543 -0.0069800243
000030 46 5b 0b 3c 35 1d d6 3c 12 86 ec 3c 3e c6 cb 3b
       0.008505648 0.026136974 0.028872523 0.0062187007
000040 e9 bf 67 3d 9f 8d 6f 3c a3 26 17 3c e3 81 ff 3b
       0.056579504 0.014621167 0.00922552 0.007797466
000050 b7 f1 f9 b9 1d d1 6e 3d 66 46 a4 3b fc 00 d6 3c
       -0.00047673073 0.058304895 0.005013275 0.026123516
000060 31 93 60 3a f6 7b 67 bc 74 8c 4f bd 1e 38 67 bc
       0.0008566855 -0.014128676 -0.050671056 -0.0141125005
000070 e2 89 3d bd 2e df c8 3a 5f f8 0c 3d b2 5e 03 bd
       -0.046274073 0.0015325302 0.034416553 -0.03207273

weight f4 [128, 32, 5, 5]
000000 96 6c 59 bd c0 21 7a bc 74 71 c9 39 15 16 14 bd
       -0.05308207 -0.015266836 0.00038422237 -0.03615387
000010 05 9d 12 3c d3 0f b9 3c a0 97 f4 3c 7a 15 89 3c
       0.008948569 0.022590553 0.029857457 0.016733874
000020 5e 37 99 bc a5 85 f5 3c be 1b 37 3c 75 75 08 bd
       -0.018703159 0.029970953 0.011176048 -0.03331514
000030 1f 21 8d 3c fe a5 4e bc ab 0d b6 bc 30 6f 11 bc
       0.017227707 -0.012612818 -0.022223314 -0.008876607
000040 43 1b 25 3d 33 67 25 bd 2b db c9 bc 3e 0c 8e 3c
       0.040309202 -0.04038162 -0.02464064 0.017339822
000050 08 c2 9f 3c c4 40 83 bc b2 76 48 bd 48 fd 35 ba
       0.019501701 -0.016022094 -0.04894132 -0.0006942344
000060 45 f6 35 3d e5 50 2e bd ef 53 2c bc fd 36 c4 3c
       0.044424314 -0.042557616 -0.010518058 0.023952002
000070 a4 47 5a 3c 80 9a 8c 3c b8 32 fa bc d8 de 5c bc
       0.0133227445 0.017163515 -0.030541763 -0.013480864
000080 8d 98 a6 bc ef 18 d1 3b a7 54 a9 ba d1 e3 32 3c
       -0.020336414 0.006381146 -0.0012918905 0.0109185735
000090 10 86 5e 3c 5a fe 25 3d 74 58 89 3c df f3 e2 3a
       0.013581768 0.04052577 0.01676581 0.0017315111
0000a0 6c 54 1c 3d 85 28 c7 3c e9 71 92 bc 49 60 89 bc
       0.03816645 0.024311313 -0.017876582 -0.016769545
0000b0 f0 73 40 bd 6f e3 d5 3b 20 fe ba 3c 3c 33 c3 bb
       -0.046985567 0.0065273563 0.022826254 -0.0059570353
0000c0 69 a6 02 3c c2 80 4f bc 95 5d 7b bc d8 52 9e bc
       0.007974246 -0.012664976 -0.015342136 -0.019326612
0000d0 41 9f 5a 3c b6 b5 29 bc 74 87 1f 3c 14 14 04 bd
       0.013343633 -0.010358265 0.009736884 -0.03224571
0000e0 25 34 1a 3c e2 57 10 bc 62 b2 15 bd 91 c6 f7 bb
       0.009411846 -0.008810015 -0.036547072 -0.0075615128
0000f0 a1 19 27 bc be 97 ec bc c6 fd 1e bd 5b 27 e7 3c
       -0.0101989815 -0.02888095 -0.038816236 0.028217008
000100 77 7d 81 bc 5c 63 fa 3b 58 cb 2e bc 65 2f 19 bb
       -0.015806897 0.007641239 -0.010668598 -0.0023374197
000110 6d 1d 22 bc fd ea fe 3b 1a bb c3 bc 02 67 c7 bc
       -0.009894711 0.0077794776 -0.023892928 -0.02434111
000120 a3 46 c5 3b 1c 19 92 bc 00 b4 13 bc 0d 59 ce bb
       0.0060203834 -0.017834239 -0.009015083 -0.006297237
000130 10 76 e0 bb 08 89 c1 bc a6 15 18 bd a3 a0 bb 3c
       -0.0068500116 -0.023624912 -0.03713002 0.022903746
000140 7f 2f a6 3c 18 80 71 3c 51 bb bd 3c eb 88 c0 bc
       0.02028632 0.014740013 0.023160608 -0.023502788
000150 c4 76 1f bd 92 4d cd 3c b3 21 22 3c 91 dd 80 bc
       -0.038931623 0.025061402 0.00989573 -0.015730651
000160 2b af c9 3c 93 be d3 3b a3 c0 a9 3c 14 6a 4c 3c
       0.02461966 0.006461927 0.02072174 0.012476463
000170 46 44 8a 3c b6 4e f0 bb f9 cc 0a 3d ec f7 9b bc
       0.016878258 -0.007333602 0.033886883 -0.019039117
000180 07 d4 f2 bc 05 67 d9 3c 18 56 92 bc f1 48 c4 3c
       -0.029642118 0.026538381 -0.017863318 0.023960562
000190 23 de bf 3c 07 32 04 bd e1 b0 d0 3c 72 00 b8 3c
       0.023421353 -0.032274272 0.025474967 0.02246115
0001a0 45 73 54 bc 0e 58 2f 3b 14 50 c5 bc 6f 96 e4 bc
       -0.0129669355 0.0026755366 -0.024086036 -0.027903764
0001b0 9f 54 43 bd 92 8e d6 3c ba a6 7c bc dd 02 06 3d
       -0.047688123 0.02619103 -0.01542061 0.032717574
0001c0 e8 3f 2a bd 7e 9a 0c 3d 53 e3 dc bb 6f 8a 74 3b
       -0.041564852 0.034327023 -0.0067409663 0.0037313958
0001d0 17 97 d9 bc 81 d2 d1 bc 6f b5 29 bc cc 2e 08 bd
       -0.026561303 -0.025613071 -0.010358199 -0.033247754
0001e0 ce 1f ed 3c 32 95 09 3d a4 4e d4 bc 4c fb 84 3b
       0.02894583 0.03358955 -0.025916405 0.0040582772
0001f0 28 f5 a8 bc c0 06 c3 3c 41 3e f5 bc ff d2 47 bc
       -0.020624712 0.02380693 -0.029936912 -0.0121963015
000200 15 a9 d9 bc 7d 78 ce bc ce a5 c2 3c 2b 15 16 bc
       -0.026569882 -0.025203938 0.023760702 -0.00916032
000210 66 11 32 3c 11 ad ce bc b3 90 97 3c 31 73 85 bc
       0.010868406 -0.025229009 0.018501615 -0.01629028
000220 e6 c9 5d bc 75 ac 9d 3c fe 63 d8 3c 54 eb 3f bc
       -0.013536906 0.019247273 0.026414867 -0.011713821
000230 39 24 39 bc 47 0c 15 3c c8 a6 24 3a 1a 45 88 3c
       -0.01130014 0.009097165 0.0006280956 0.016634513
000240 c4 1e fb bc 07 d6 f2 bc b0 92 b4 bb 5b db 45 3c
       -0.030654319 -0.029643072 -0.0055106506 0.012076224
000250 28 38 78 3c 1d 6e 44 bb 20 5a da 3c cf f2 d5 3c
       0.015150107 -0.002997286 0.026654303 0.026116757
000260 84 ed d8 bc e8 fd ef 3b 6a 0f ab 3b 6b 89 f6 bc
       -0.026480444 0.007323969 0.0052203434 -0.030094823
000270 73 03 04 bb ac 2f 20 3c bc 9f 47 3c 99 57 bb 3c
       -0.0020143657 0.009776991 0.01218408 0.022868918
000280 b3 b0 ac bb d1 08 e9 3b e9 ce 6e 3b 6f 8e cb bc
       -0.0052700876 0.0071116467 0.0036439246 -0.024848191
000290 1d 83 d4 3c 4b a1 bd 3c 75 32 ff bc 75 21 91 3c
       0.025941426 0.0231482 -0.03115199 0.017716149
0002a0 14 3e 87 3c 29 f3 b8 3b 0c 3b 0a 3d 4f 6d d4 bc
       0.016509093 0.0056442213 0.033747718 -0.025931029
0002b0 c3 02 05 bd e0 4a 1e 3c 82 d1 1c bd 6c 8e bb 3c
       -0.032473337 0.009661406 -0.03828574 0.02289506
0002c0 eb f3 2e 3c 61 f8 b8 bc 1f 74 02 bd 03 3f 7c bc
       0.010678272 -0.022579374 -0.031849023 -0.015395883
0002d0 05 08 0e bd 71 82 12 bc b8 9b 0f bd eb 55 f8 bc
       -0.034675617 -0.0089422325 -0.035060614 -0.030314406
0002e0 37 b1 de 3c 78 3a db 3b 2a 45 eb 3c d7 28 95 3c
       0.027184112 0.0066903196 0.028719503 0.01820795
0002f0 2c 62 31 3c 90 44 15 3d 80 ba 14 bc 7d a1 bb bc
       0.010826629 0.03644234 -0.009077668 -0.022904152
000300 91 51 01 bb f5 81 92 3c 11 17 92 bc 45 a7 8c 3a
       -0.0019732455 0.017884234 -0.017833265 0.0010731003
000310 ec c6 f3 3b 73 12 74 3b 96 2e e3 bc f0 0f 54 3c
       0.007439485 0.0037242442 -0.027732175 0.012943253
000320 e2 03 04 bd e4 9e a3 3b 84 90 47 3d 2c 10 d5 bc
       -0.032230265 0.0049933065 0.048721805 -0.026008688
000330 45 cf 4e 3c f7 57 e0 3c cc 41 a1 3c 76 c4 f1 bc
       0.012622659 0.027385695 0.019684695 -0.029512625
000340 d1 c5 5b bc ee 3d f1 bc dc e8 9b bb a3 84 83 3c
       -0.013413862 -0.029448476 -0.0047579836 0.016054457
000350 87 15 30 3c 16 8b c3 ba 81 77 39 bd 21 7b 1c bd
       0.01074732 -0.001491877 -0.045279983 -0.038203362
000360 f3 89 b6 3c 13 94 2e 3c 3b 0c 26 bd 7e 80 63 3d
       0.022282576 0.010655421 -0.040539008 0.05554246
000370 bf 33 63 3c d7 80 17 bc d4 c1 75 3c 6b 79 26 bc
       0.013867318 -0.009247026 0.0149998255 -0.010160784
000380 40 43 53 bd da 1a d1 bc 68 74 67 3c 05 5f 79 bb
       -0.051577806 -0.0255255 0.0141268745 -0.003805102
000390 de ee bf 3c fb 58 97 ba d0 e6 4b bc f5 39 cc 3c
       0.02342933 -0.0011546904 -0.012445167 0.02492998
0003a0 4a 5f 3d bc 60 12 85 bb 4e 93 02 bc 26 c3 b8 3c
       -0.011558363 -0.0040610284 -0.0079696905 0.022553992
0003b0 c7 99 0d bc 4c fd 2d 3d 05 6e fc bc 59 ff ad bc
       -0.00864262 0.04247789 -0.03081418 -0.021239923
0003c0 30 e1 dd bc b9 74 59 3c ae de 77 bb 54 d4 55 3c
       -0.027084917 0.013272458 -0.0037821936 0.013051111
0003d0 52 b7 28 3d e0 35 8b bc af ba a7 3c 83 eb d6 3c
       0.041190453 -0.016993463 0.02047476 0.026235348
0003e0 9c a6 e5 bc 1e 64 f6 3c 9c 45 31 3c d0 7a 1a 3d
       -0.028033547 0.030077036 0.010819819 0.03771478
0003f0 98 61 4d bc 82 c0 a9 ba c0 7d f2 bc e1 20 96 3c
       -0.012535475 -0.0012951049 -0.029600978 0.018326225

bias f4 [128]
000000 e3 32 4e bd 70 11 1c bd 05 06 13 bd 6c 28 b3 39
       -0.050341498 -0.038102567 -0.035894413 0.00034171657
000010 db f5 38 3a 6d 98 93 bc 29 42 31 bd d6 a0 89 3c
       0.0007055678 -0.018017018 -0.043275986 0.016800325
000020 e2 e2 c4 bc dd 1d 9d bb 57 c2 37 bd 09 5d ea 3b
       -0.024033967 -0.0047948197 -0.04486307 0.007152204
000030 2c 1a b6 3b 4b 8b 06 bc bb 7f 86 bc ff 37 86 3c
       0.005557319 -0.008211921 -0.016418329 0.016384123
000040 52 51 06 3d ac 42 57 bd 2f 69 c1 bb e7 30 77 bc
       0.032792397 -0.052553818 -0.0059024314 -0.015087343
000050 4c d0 25 bd b8 44 0a 3d 39 7f 1b bd df 4e 68 3c
       -0.04048185 0.03375694 -0.037963126 0.014178961
000060 46 35 0f bd d5 ad 96 3c 99 fe 13 3d 06 7d 22 bd
       -0.034962915 0.018393436 0.036131475 -0.039670013
000070 84 90 c2 bc 4f f0 be bc 86 b5 21 3c 05 3c 8a 3c
       -0.023750551 -0.023307947 0.009869939 0.016874323
000080 cc 2c 4f 3b 95 d9 05 3d d2 33 22 3d 70 50 ba bb
       0.0031612394 0.032678206 0.0396002 -0.0056858584
000090 1e dc e5 3c 15 53 90 bc 6a 82 b4 3c fb 71 29 bd
       0.028059062 -0.017617742 0.022034843 -0.041368466
0000a0 6c 66 67 bc 4c 38 22 3c fc f1 ad bb ce 53 02 3b
       -0.01412354 0.0099011175 -0.005308388 0.0019886377
0000b0 59 99 b4 3c 71 f3 b6 3c 13 9a 0f 3d c0 6a 9b 3b
       0.022045778 0.022332879 0.035059046 0.00474295
0000c0 90 ed e2 bb 65 36 0a bd 0d 08 61 bc 48 f4 0b 3d
       -0.0069252923 -0.03374328 -0.01373483 0.03416851
0000d0 31 29 c8 bc 95 e1 91 bc e4 8b 75 bc 27 88 c9 bb
       -0.024433704 -0.017807761 -0.014986966 -0.006150264
0000e0 d5 fd 12 bd ff fd f5 3c 6c b3 26 bc 5c 8e 54 3c
       -0.035886604 0.030028341 -0.010174613 0.012973394
0000f0 07 5b 70 bc a4 81 d3 ba 27 44 1c bd 0a 96 4a 3c
       -0.01467014 -0.0016136658 -0.038150933 0.012364874
000100 db c6 d8 3c d7 77 d4 bc 25 15 4f 3d bd b1 86 bc
       0.02646201 -0.02593605 0.050557274 -0.016442174
000110 9f 31 16 bd e8 8e 43 3c fd 24 ff bc 35 12 fc bc
       -0.036668416 0.011935927 -0.031145567 -0.0307704
000120 4e 64 58 ba 86 e4 c7 bb b4 58 14 3d 1a 9f a0 3c
       -0.00082546927 -0.00610024 0.036217406 0.019607116
000130 96 e4 ff bc ab d9 bd 3c 0e ce f9 3b 44 11 5f 3b
       -0.031236928 0.023175081 0.0076234406 0.003403739
000140 27 cb 07 bd fd 88 ee 3c 0b f1 28 bc bb 00 cb bc
       -0.033152726 0.029118055 -0.010311375 -0.024780622
000150 11 c8 e8 bb e3 4a 2c bc f9 38 57 bc 49 0e 61 bc
       -0.007103928 -0.010515901 -0.013136142 -0.013736316
000160 88 7e b2 3a 36 27 47 bc 9b 6e 50 3b 48 9e fe bb
       0.0013618032 -0.012155345 0.0031804207 -0.0077703334
000170 81 17 ee bb 83 9b ed bc 82 bc 03 bd d9 61 78 3c
       -0.0072659855 -0.029004818 -0.032162197 0.015160047
000180 29 c3 42 bd 7e 9e d6 3b 87 70 d7 3a e8 b9 e3 bb
       -0.0475494 0.0065496555 0.0016436734 -0.006949652
000190 0c b9 c8 bc 07 36 2b bd fc 7f 96 3c 60 96 ad 3b
       -0.0245023 -0.04179957 0.018371575 0.005297467
0001a0 da df 19 bd 87 5c 32 bd 34 55 fa bc 69 eb f6 3b
       -0.037566997 -0.043545272 -0.030558206 0.0075353873
0001b0 19 10 b0 39 cf c4 12 bd c5 15 c5 3c 5a 36 be 3c
       0.0003358133 -0.035832223 0.024058232 0.023219276
0001c0 0f a2 83 bb a9 60 93 bc 38 26 34 3c a3 3e 31 bc
       -0.0040171216 -0.017990427 0.01099544 -0.010818156
0001d0 a4 20 79 bb e4 2d 1f bd f4 13 18 3c 0d f2 14 3c
       -0.003801384 -0.038862124 0.009282101 0.0090909125
0001e0 62 f2 9c 3c 88 61 b6 bc 6c 56 e4 bc ad b7 9a bb
       0.019158546 -0.022263303 -0.02787324 -0.004721603
0001f0 e7 69 3a bd d4 17 15 3d 26 9d 00 bd d0 51 12 bd
       -0.045511153 0.036399677 -0.03139987 -0.035722554

weight f4 [10, 2048]
000000 90 80 24 bb 2d 47 cd 3c df 81 dc 3b d0 0a 11 3c
       -0.0025101043 0.025058353 0.006729349 0.008852676
000010 a5 9d 21 bd c6 af a9 3c 75 d6 04 bc 75 c1 82 bb
       -0.039456982 0.020713698 -0.008107771 -0.003990347
000020 7a a2 0d bc de 91 56 3c f0 e0 6a 3d bb 9c 51 3d
       -0.008644694 0.013096301 0.057343423 0.05117486
000030 cb 2b 59 3c a6 d2 73 3d 32 98 7e bd b6 ec fd bc
       0.01325507 0.059527062 -0.062156864 -0.030996662
000040 51 30 09 bc e1 34 e5 3b 44 a8 27 3d 4d fb ec 3b
       -0.008373336 0.006994829 0.040931955 0.007232106
000050 5e d3 8e 3b 74 fe 9f bc 9c d5 8d 3c 9e 70 dc 3c
       0.004358693 -0.019530512 0.017313771 0.026909169
000060 a0 dd 0e bc 6e 4c f2 3c 87 e5 5f bd 38 2a 29 bb
       -0.008719832 0.02957746 -0.054662254 -0.0025812518
000070 40 18 7b 3c 02 dd b8 bc 79 2f 12 bb 71 18 29 bb
       0.015325606 -0.022566322 -0.0022306128 -0.0025801922
000080 4d ed 13 3b 49 a0 0a 3b 1b 43 ad 3c 7b a6 41 3c
       0.0022571862 0.0021152666 0.021150162 0.011819477
000090 4c 03 61 3b e6 32 85 3c 7c b7 99 bc c6 66 72 bc
       0.003433424 0.016259622 -0.01876425 -0.014795011
0000a0 15 cc 16 3a f4 68 3f bd a8 87 a9 bc 1d 39 8d bb
       0.00057524565 -0.04673095 -0.020694569 -0.004309787
0000b0 8f 28 87 bc 04 1e be bc 81 18 eb 3c cd 1f f1 3c
       -0.016498832 -0.023207672 0.028698208 0.02943411
0000c0 bd 8b 1a b8 0c 69 af 3b 25 79 83 3a 9f f0 17 3d
       -3.6846603e-05 0.0053530987 0.0010030611 0.03709471
0000d0 c4 05 e2 bc a3 f1 2a 3c 70 31 1b bd f4 11 81 3d
       -0.02759064 0.010433587 -0.037888944 0.063022524
0000e0 4c 16 6d bb 96 d4 f8 bc 9e 21 44 3c a0 af 3a bd
       -0.003617662 -0.030374806 0.011970906 -0.045577645
0000f0 ee a4 a1 bb a6 09 b1 3b 0a f7 1c bc d0 fe d7 bc
       -0.004932991 0.0054027615 -0.009580383 -0.026366621
000100 30 c4 9c bc ec 3a 45 3c 23 75 d3 3b 42 11 a6 bc
       -0.019136518 0.012037974 0.006453173 -0.020271901
000110 aa 3a 56 3c 7a d6 34 3d c3 8d c5 bc 55 ed 87 bb
       0.01307551 0.044149853 -0.024115449 -0.004148165
000120 68 af c5 bb e7 93 d7 3c c7 24 37 3d 60 97 a6 bc
       -0.006032873 0.026315643 0.044712808 -0.020335853
000130 d1 af 71 3c b3 13 b7 3a ac ff 8b 3c 41 6c d5 3b
       0.014751391 0.0013967663 0.017089687 0.006513149
000140 23 9b 05 bc bf 60 1f bc 6c 33 e1 3a 21 fa df 3a
       -0.008154663 -0.009727656 0.0017181463 0.0017088094
000150 ca eb 0c 3c d5 2d f8 bb 34 6c 6e 3d 3f 65 2d 3a
       0.008601138 -0.007573823 0.05820866 0.0006614513
000160 67 a8 11 3b 44 18 fa bc d6 68 45 bc d8 fe d5 bc
       0.002222562 -0.030529149 -0.012048921 -0.026122496
000170 a0 c9 84 3c 2d 5d 84 3c 15 d1 a7 bb ce 16 d2 3a
       0.016209424 0.01615771 -0.00512136 0.0016028525
000180 5f af cc bc cc 99 8e bb 5e 5f 8d 3c af 84 18 bc
       -0.024985967 -0.00435183 0.017257389 -0.009308978
000190 5a 79 88 3c 7d cd d4 bb 02 25 07 3d 38 6d b4 b9
       0.016659427 -0.0064942227 0.032994278 -0.0003441365
0001a0 6a b4 b8 3b 06 91 eb bc 94 a4 8c bc 6c b3 ea bc
       0.0056367414 -0.028755676 -0.01716832 -0.028650008
0001b0 cd e2 f6 3c ed e2 24 3c 93 d1 d5 bb e6 4d 0f bc
       0.030137444 0.010063869 -0.0065252273 -0.0087466
0001c0 99 9f ff 3b bc 90 50 bc e5 20 16 bc b2 3b 71 3c
       0.007801008 -0.01272982 -0.009163116 0.014723705
0001d0 e9 b5 8c bc 14 92 3a 3d b8 a0 f1 3c c7 60 02 bd
       -0.017176585 0.045549467 0.029495582 -0.031830575
0001e0 7d b6 69 bd 47 f4 7f 3c 6e a5 40 3c 2b 52 31 bd
       -0.0570588 0.015622205 0.0117581915 -0.043291252
0001f0 02 fa 9c bc f5 d8 2e bb 72 cd 68 3c 32 91 67 3c
       -0.019162182 -0.002667961 0.014209138 0.014133738
000200 c1 e7 e1 bc 0b da 65 3c 1c 48 ba bc 7d 04 f8 3c
       -0.02757633 0.014029036 -0.022739463 0.030275578
000210 34 3b e0 ba dc df a9 3c 0f ff 6e 3c a0 de 49 3d
       -0.0017107488 0.020736627 0.014587178 0.049284577
000220 79 f7 86 3c 63 bb 35 3b 13 b8 f8 3c 4b a8 8b 3c
       0.016475426 0.00277301 0.03036121 0.017048022
000230 06 15 3b 3d 42 e9 fe bc 29 8b a3 ba e3 2b d0 3c
       0.045674346 -0.031117085 -0.0012477386 0.025411552
000240 04 2c c8 3c 6f cc 47 bc 1b 6e a2 3b 26 16 0a bc
       0.02443505 -0.012194737 0.0049569733 -0.008428132
000250 e3 c1 e5 3a 08 52 af 3b 8e 94 c9 ba 01 4a aa 3a
       0.0017529096 0.005350355 -0.0015379356 0.0012992026
000260 bb bf e1 bc 7d bf 82 bc 6e 06 20 bd dd ca bb bc
       -0.027557245 -0.01596045 -0.03906863 -0.022923881
000270 d6 0d c1 bc 8e 73 0e bd 4c be 7d 3c dc 50 10 3d
       -0.023566168 -0.03477817 0.015487265 0.035233364
000280 f1 d9 6a bc c7 a9 73 3c f6 9f 8f bb 4f 76 22 3c
       -0.014334188 0.014872021 -0.0043830825 0.009915902
000290 7c 7c ef bc 10 05 8a 3c d4 a0 9f bc 0a 4e e0 bc
       -0.029234163 0.016848117 -0.019485869 -0.027380962
0002a0 ba 7d 09 bd cd 13 d6 bc b1 d0 5b bc e1 21 89 bc
       -0.033567168 -0.026132489 -0.013416455 -0.016739788
0002b0 b5 ce 95 3c 64 c5 41 3a ad e5 a7 3c 97 42 b6 3c
       0.018287042 0.0007391779 0.02049526 0.02224855
0002c0 2d b3 a4 bc 1b 88 c7 3c 7a e9 02 3d 05 48 38 3b
       -0.020104969 0.024356892 0.03196094 0.00281191
0002d0 f0 1c ee bc 9b 4f 02 bc f6 91 19 bc 26 c7 11 3c
       -0.029066533 -0.00795355 -0.009373179 0.008897578
0002e0 0d 42 36 3d 6f cd f1 b9 70 58 89 3d 3d 36 1a bd
       0.044496585 -0.00046120162 0.06706321 -0.037649382
0002f0 cc e5 59 3c 47 20 59 bc c2 69 17 bd 88 65 1a bd
       0.013299417 -0.013252324 -0.036966093 -0.037694484
000300 60 5d 23 bb a0 39 00 3d 68 df ee 3b f5 14 8f 3b
       -0.0024927482 0.031304955 0.0072898157 0.004366512
000310 ee 61 0f bb 14 87 25 bc 2a ec 22 3d 0c 0e 3e bc
       -0.002187844 -0.010103006 0.039776005 -0.011600029
000320 fd cd 6f bc 47 39 42 3c eb 60 26 39 52 5f 9e bc
       -0.014636514 0.011854476 0.00015867098 -0.019332562
000330 48 57 96 bc 9f 07 61 3b 16 b4 2a bc df 93 3f bc
       -0.018352166 0.0034336818 -0.010418912 -0.01169297
000340 d2 ca a3 3c 14 ee 5e 3c c9 31 73 3a 34 fb 18 bc
       0.019994173 0.013606567 0.0009277133 -0.009337235
000350 f3 79 65 bc 7e b9 01 3d d0 31 e1 3c 47 c2 4d bb
       -0.014006126 0.03167104 0.027489573 -0.0031396316
000360 75 a9 e8 3c cf 9e ca bc 6d b3 db 3c 52 c8 f2 bc
       0.028401116 -0.024733929 0.026818955 -0.029636536
000370 4e ac db 3b f7 d4 ae bb 45 49 55 3c 81 07 00 bc
       0.00670389 -0.005335446 0.013017957 -0.007814289
000380 0e 4d 4e 3c 84 20 ee 3c c4 16 fb 3c 8b 24 5f 3b
       0.012591613 0.029068239 0.030650504 0.003404888
000390 43 b5 f7 3b a9 93 3c bd 18 d0 15 3d 27 cf fd 3c
       0.00755945 -0.046039257 0.036575407 0.030982567
0003a0 ff c2 28 bc 6f 24 41 3d 75 71 37 bd a2 f1 15 bd
       -0.010300397 0.047153886 -0.044785935 -0.036607392
0003b0 70 da ed bb bc 9d c4 ba c3 b2 d4 3b 6d de f3 3c
       -0.007258706 -0.0015000622 0.0064910366 0.029769147
0003c0 6c 56 87 3c 81 27 36 3c d9 99 21 3c 2e d1 3d 3c
       0.016520701 0.011117817 0.00986334 0.011585517
0003d0 fd e1 e5 3a 76 10 14 3d 93 60 46 bc 7a d3 5b 3c
       0.0017538663 0.03614851 -0.012107986 0.013417119
0003e0 50 5b b9 bb db 4f b1 3c bc 77 2e b8 c6 e3 b1 3c
       -0.0056566373 0.021644523 -4.1596344e-05 0.021715056
0003f0 31 77 0e 3b 39 2f 71 bc 41 24 2d bd 2d 72 0b bd
       0.0021738524 -0.014720731 -0.042270903 -0.034044433

bias f4 [10]
000000 17 12 29 bd be ad 9e 3d 64 a5 ca bb 3d a9 73 bd
       -0.041277017 0.077479824 -0.006184267 -0.05948757
000010 00 c3 cf 3c af 3c c7 bc 3b 34 76 bc 8b 75 9c 3c
       0.025361538 -0.024320928 -0.015027101 0.019099018
000020 0f 93 99 39 c2 c9 bd 39
       0.00029292 0.0003619921
