cnn-MNIST-tanh.pt (torch, 569597 bytes, 8 tensors)

weight f4 [16, 1, 5, 5]
0	0xbe385212	-0.18000057
1	0xbe02f34a	-0.1278812
2	0x3e0c3814	0.13693267
3	0x3e359fb3	0.17736702
4	0xbcf53fdf	-0.029937683
5	0x3e1a7f3a	0.15087596
6	0x3e20681f	0.15664719
7	0xbe006ca4	-0.12541443
8	0x3cebe8ef	0.028797595
9	0xbe47b060	-0.19500875
10	0x3e63f774	0.22262365
11	0x3e5619c6	0.2090827
12	0x3e71664a	0.23574176
13	0x3e1e1d03	0.15440755
14	0x3cb13164	0.021629997
15	0x3e562bb1	0.20915104
16	0x3b1e7ac1	0.0024182054
17	0x3dd2f7b2	0.103011504
18	0x3e6bc622	0.230248
19	0x3e36cdce	0.17851946
20	0x3dad3c0a	0.08458717
21	0x3dda2119	0.10650844
22	0xbbf723ac	-0.007542094
23	0x3e0aad29	0.13542618
24	0x3e37809c	0.17920154
25	0x3d47475f	0.04865205
26	0xbca23f53	-0.019805586
27	0x3ddf9d8d	0.10918722
28	0x3d9f9001	0.077911384
29	0xbd93565e	-0.071942076
30	0xbcdb72d6	-0.026788156
31	0x3e17c4c0	0.14821148
32	0xbd05158c	-0.03249125
33	0x3e20c6a0	0.1570077
34	0xbc0a7448	-0.008450575
35	0xbd6d89db	-0.057992797
36	0xbdb0aa43	-0.08626225
37	0xbe23d961	-0.16000892
38	0x3d9a513a	0.07535024
39	0x3e00caff	0.12577437
40	0xbe1cdce6	-0.15318641
41	0x3dd26b3b	0.10274359
42	0xbdd62164	-0.104555875
43	0x3e2f8e26	0.17144069
44	0x3e193cd8	0.14964616
45	0xbd7eaa50	-0.06217414
46	0xbd25bfc5	-0.04046609
47	0xbd949249	-0.07254464
48	0xbe6bed71	-0.23039795
49	0xbd536233	-0.051607322
50	0xbb804682	-0.003914655
51	0xbe2ec3a6	-0.17066821
52	0x3de0fddd	0.109859206
53	0x3e6fc5d0	0.23415303
54	0x3e782fd3	0.24236993
55	0xbe5c5827	-0.21518002
56	0xbe524dfb	-0.2053756
57	0x3e225870	0.15854049
58	0x3e072b57	0.13200127
59	0x3dcf4f59	0.10122556
60	0xbc836af8	-0.016042218
61	0xbe2e0ac3	-0.16996293
62	0xbe2442a0	-0.1604104
63	0xbd85764a	-0.065167025
64	0x3b909556	0.0044123335
65	0xbd05891a	-0.032601453
66	0x3d81ff6b	0.06347545
67	0x3d227a36	0.03966733
68	0x3d951475	0.072792925
69	0xbe43ecb5	-0.19133265
70	0x3d2971a9	0.04136816
71	0xbde86457	-0.11347263
72	0xbe80572e	-0.25066513
73	0xbdedb733	-0.11607208
74	0xbe8194ce	-0.2530884
75	0x3d96a581	0.07355786
76	0xbe3c099b	-0.18363039
77	0xbd3d7714	-0.04625614
78	0xbe8921d8	-0.26783633
79	0xbd21427c	-0.039370045
80	0xbe1e5d1b	-0.15465204
81	0xbe75d0ee	-0.24005482
82	0xbe95fd50	-0.29294825
83	0xbe72368e	-0.23653623
84	0xbd99e4b0	-0.07514322
85	0xbd2fe2bd	-0.042940844
86	0xbe84ada1	-0.25913718
87	0xbda61829	-0.08110077
88	0xbe58e96c	-0.21182793
89	0xbdaaf16c	-0.08346829
90	0xbdc4b15b	-0.0960414
91	0xbdb64638	-0.08900112
92	0xbe5fd3bc	-0.21858114
93	0x3e006fb7	0.12542616
94	0x3eaac86d	0.33356038
95	0xbdd07257	-0.101780586
96	0x3e640608	0.22267926
97	0x3e152efb	0.14568703
98	0x3e8948a9	0.26813248
99	0x3e682073	0.22668628
100	0x3d3f362d	0.046682525
101	0xbe7b6e15	-0.24553712
102	0x3dc7666a	0.09736331
103	0x3e3da8a2	0.1852136
104	0x3e06af20	0.13152742
105	0x3cfb975d	0.030711824
106	0xbe33edaf	-0.17571138
107	0xbc95cf3e	-0.018287297
108	0x3e5087ae	0.20364258
109	0xbe028254	-0.12745029
110	0xbd154a09	-0.03644756
111	0x3e1ca2da	0.15296498
112	0xbe05aad0	-0.13053441
113	0xbc07c40e	-0.008286489
114	0x3e6fa0c5	0.23401172
115	0xbcc44fdc	-0.023963861
116	0xbe4e1f66	-0.20129165
117	0xbd5909ba	-0.05298779
118	0xbdab6705	-0.08369259
119	0x3e841d79	0.25803736
120	0x3e3ee0a9	0.18640389
121	0x3e2cac1b	0.16862528
122	0xbe762943	-0.24039178
123	0xbe499080	-0.19684029
124	0x3dceb5ec	0.100932926
125	0xbe810051	-0.25195554
126	0xbd9ec946	-0.077532336
127	0x3de64f67	0.112456135
128	0xbdd574df	-0.10422682
129	0xbe5e9245	-0.21735485
130	0xbd9a0107	-0.07519727
131	0x3dbbf9bd	0.09178493
132	0xbe4c5dfd	-0.19957729
133	0xbeb6805c	-0.35644805
134	0xbeb16dbb	-0.3465403
135	0x3e1e40b9	0.15454377
136	0xbe4ca928	-0.19986403
137	0xbea044d5	-0.31302515
138	0xbe3ec43d	-0.18629546
139	0xbae97607	-0.0017811664
140	0x3e11bccf	0.14232181
141	0x3dc68cd2	0.09694828
142	0x3db0d101	0.08633614
143	0xbd1ab6ce	-0.037771992
144	0x3e6ee8fe	0.23331067
145	0x3ec34460	0.38138103
146	0x3ee5cd33	0.44883117
147	0x3ed7a531	0.4211822
148	0x3e02aef6	0.12762055
149	0x3e1a1524	0.15047127
150	0x3dd6cd7b	0.10488411
151	0xbbb7e61d	-0.0056121484
152	0x3e32a4c4	0.17445666
153	0x3da5de97	0.08099096
154	0xbda72520	-0.08161378
155	0x3dd7122d	0.10501514
156	0xbdc0dcf2	-0.09417142
157	0x3e58add1	0.21160056
158	0x3d9027f6	0.07038872
159	0xbe84bc16	-0.25924748
160	0x3db5b272	0.08871926
161	0xbe478d9d	-0.19487615
162	0x3e3c0a82	0.18363383
163	0x3e35e1ec	0.17761964
164	0x3e2f94ea	0.1714665
165	0xbe04d200	-0.12970734
166	0xbce633c4	-0.028100856
167	0xbd910b50	-0.07082236
168	0x3e63731f	0.22211884
169	0xbe265345	-0.16242702
170	0xbd7195ac	-0.05898063
171	0xbe22a152	-0.15881851
172	0xbe15b847	-0.14621077
173	0x3e348efe	0.17632672
174	0x3e19135a	0.14948788
175	0xbe28bb6e	-0.16477749
176	0xbe908941	-0.28229716
177	0x3dbdc166	0.092654034
178	0xbd6ec856	-0.058296524
179	0xbe4695da	-0.19393101
180	0x3d32d944	0.043664232
181	0xbde8ed6a	-0.11373408
182	0xbea72424	-0.3264476
183	0xbdcb2f4c	-0.099211305
184	0xbea0d16b	-0.31409773
185	0x3e546ea2	0.20745328
186	0x3d5b33de	0.05351626
187	0xbd77d31f	-0.060504075
188	0xbe8e7189	-0.27820995
189	0xbe84dd77	-0.25950214
190	0x3e0a28e8	0.13492167
191	0xbc3491d4	-0.011021096
192	0xbe2b2bec	-0.16715974
193	0x3e3d806d	0.18506022
194	0x3e0c0b7f	0.1367626
195	0x3ce1968d	0.027537609
196	0x3eba85dd	0.36430255
197	0x3edc9ee3	0.4308997
198	0x3ec8e4bc	0.3923701
199	0x3eb90eb4	0.3614403
200	0xbd3a8416	-0.045536123
201	0xbc5aed48	-0.013362236
202	0x3cc0542e	0.02347764
203	0x3e64aeff	0.2233238
204	0x3eb611e3	0.3556052
205	0xbe2ef3a3	-0.17085128
206	0xbe22ed47	-0.15910827
207	0xbd0f0faa	-0.034927048
208	0x3e644aa6	0.22294101
209	0x3e02f6e2	0.12789491
210	0xbe63fa1a	-0.22263375
211	0xbeb07632	-0.34465176
212	0x3cbf8732	0.023379896
213	0x3e8a3c81	0.26999286
214	0x3ec228aa	0.3792165
215	0xbed1fe54	-0.4101435
216	0xbe87cd3e	-0.26523775
217	0xbd149c22	-0.036281712
218	0x3eb24878	0.34820914
219	0x3ec8b700	0.39202118
220	0xbe39e8d2	-0.1815522
221	0xbe800cdd	-0.25009814
222	0xbb7ad878	-0.0038275998
223	0x3e6611d5	0.2246774
224	0x3e8fa90e	0.28058666
225	0x3dbaecc6	0.09127192
226	0x3e4e3242	0.2013636
227	0x3d1c9ec6	0.038237356
228	0x3e230097	0.15918194
229	0xbe1e983c	-0.1548776
230	0x3d320787	0.04346421
231	0xbe750b6d	-0.2393014
232	0xbceaf22c	-0.02867993
233	0xbda45d81	-0.08025647
234	0x3dc4b17c	0.09604165
235	0x3df37dec	0.11889252
236	0xbcd050bc	-0.025429122
237	0xbdd5fdee	-0.10448824
238	0x3e4a724c	0.19770163
239	0x3dd3db1d	0.10344527
240	0x3d03de20	0.032194257
241	0x3e45a9ee	0.19303104
242	0x3e065ed0	0.13122106
243	0x3e1e2e5e	0.15447375
244	0x3dce1b1c	0.100637645
245	0xbce33271	-0.027734013
246	0xbe3213c4	-0.17390352
247	0x3d1fc78a	0.039008655
248	0xbe82d4bc	-0.25552928
249	0xbe225b0e	-0.15855047
250	0xbe4a7595	-0.19771416
251	0xbe450b91	-0.19242693
252	0x3e15ac91	0.1461661
253	0x3d702a52	0.05863411
254	0x3e1bf83f	0.15231417
255	0x3d642917	0.05570325

bias f4 [16]
0	0xbd86173b	-0.065473996
1	0xbd803a67	-0.06261139
2	0xbd942226	-0.07233076
3	0xbda5eca4	-0.08101776
4	0xbdba9cb6	-0.091119215
5	0x3daa681f	0.08320641
6	0x3ca993d8	0.02070038
7	0x3dc383e9	0.09546644
8	0x3e91cdff	0.28477475
9	0x3d9cad0f	0.07650196
10	0xbd5eea71	-0.0544228
11	0x3ea5021b	0.3222817
12	0x3ebbe705	0.3669969
13	0x3db8bcda	0.090203956
14	0xbc4d895c	-0.012544956
15	0xbd8b74da	-0.06809397

weight f4 [32, 16, 5, 5]
0	0x3d0423d8	0.032260746
1	0xbd787559	-0.060658786
2	0x3d0db893	0.03459985
3	0xbd687c08	-0.05675891
4	0xbc0091d2	-0.007847266
5	0xbc379bf8	-0.011206619
6	0x3da34bf0	0.07973468
7	0x3cc9ca31	0.024632545
8	0xbd08b769	-0.03337804
9	0x3cacc073	0.02108786
10	0x3c95c923	0.018284386
11	0x3c909eff	0.01765394
12	0x3dec6579	0.11542792
13	0x3c99675e	0.018726047
14	0x3c8e38cb	0.017361065
15	0x3d567859	0.052360866
16	0x3d762c24	0.06010069
17	0x3c47464c	0.012162756
18	0x3db81113	0.08987632
19	0xbc529ed0	-0.012855247
20	0xbc00370d	-0.007825625
21	0x3c5a2198	0.013313673
22	0xbc52e88e	-0.012872828
23	0x3cbf0d92	0.0233219
24	0x3d44f3e5	0.04808416
25	0xbd400063	-0.04687537
26	0xb9d0690a	-0.00039751112
27	0xbae4d2dd	-0.0017457862
28	0xbc2ccc00	-0.010546684
29	0xbc8757a7	-0.016521288
30	0x3b93f686	0.004515472
31	0xbc446b48	-0.0119884685
32	0x3d33e350	0.043917954
33	0x3c276bdd	0.010218588
34	0x3c155e50	0.009116724
35	0x3d782b2c	0.060588047
36	0x3c3e5895	0.011617799
37	0x3cc0df12	0.023543868
38	0xbc9fb5f8	-0.01949595
39	0xbc902f65	-0.017600724
40	0x3d3c0eb4	0.04591246
41	0x3dbba2cc	0.091619104
42	0x3d49af7d	0.049239624
43	0x3d96cb51	0.07362998
44	0xbc5ae499	-0.013360166
45	0x3c4df896	0.012571475
46	0xbca594cf	-0.020212559
47	0x3d5cee58	0.05393824
48	0x3d90502b	0.07046541
49	0xbcb8b8dd	-0.022549087
50	0xbc540a35	-0.012941887
51	0x3d5c2f62	0.053756125
52	0x3d4f2c91	0.05057961
53	0x3d009009	0.031387363
54	0x3cb0d7ca	0.021587271
55	0xbd333922	-0.043755658
56	0xbd39c65b	-0.045355182
57	0x3d029862	0.031883605
58	0x3d3f9b00	0.04677868
59	0x38562ebd	5.1065104e-05
60	0x3d1e2701	0.038611416
61	0xbcdb1664	-0.026744075
62	0xbb0d1112	-0.0021525067
63	0x3d4cd5d8	0.050008625
64	0xbc6ac670	-0.014329538
65	0x3dd66224	0.104679376
66	0x3d9fe900	0.07808113
67	0x3ce99ba9	0.028516607
68	0x3c31e408	0.01085759
69	0xbd280600	-0.041021347
70	0xba779104	-0.0009443911
71	0x3cb934ad	0.022608126
72	0x3da1dbe2	0.079032674
73	0xbc90554f	-0.017618803
74	0x3b1203fb	0.0022280205
75	0x3c9a038b	0.018800518
76	0xbb3b6c52	-0.00285985
77	0x3bdf2ad7	0.006810527
78	0x3cd6cdea	0.026221234
79	0xbce91803	-0.028453832
80	0xbc93eb7e	-0.018056627
81	0x3d3aefd5	0.045638878
82	0xbb7524b1	-0.0037405903
83	0x3cc905ff	0.024538992
84	0xbd309677	-0.043112244
85	0xbd658b9a	-0.056041338
86	0xbcc11451	-0.023569258
87	0xbd26cd0f	-0.040722903
88	0x3a8bafa4	0.0010657203
89	0xbbc83409	-0.0061097187
90	0xbda2b36d	-0.07944379
91	0xbdd15898	-0.10221976
92	0xbd9f8e75	-0.077908434
93	0xbd217a20	-0.039423108
94	0x3cfda599	0.030962752
95	0x3be0720d	0.0068495334
96	0x3d4281da	0.047487117
97	0x3c1352d6	0.008991918
98	0xbd0f4e7f	-0.03498697
99	0x3be60b49	0.0070203883
100	0x3c01cbdb	0.007922138
101	0x3c1c4b68	0.009539463
102	0xbc508298	-0.0127264485
103	0x3c973699	0.018458651
104	0x3cc9f360	0.024652183
105	0x3b4c5823	0.0031180463
106	0xbc9da526	-0.019243788
107	0x3cc35505	0.023844251
108	0xbd1b3f8f	-0.03790241
109	0x3cfbd4e3	0.03074116
110	0x3da3121e	0.0796244
111	0xbac015e0	-0.0014654957
112	0x3b570f28	0.003281543
113	0x3c00837d	0.007843849
114	0xbcf5f335	-0.030023197
115	0x3d6d8194	0.057984903
116	0x3d82b4dd	0.06382153
117	0x3d7c1af4	0.061549142
118	0xbb51178d	-0.0031904907
119	0xbcba04f6	-0.022707444
120	0x3d1d220f	0.03836256
121	0xbd2cdf24	-0.04220499
122	0x3d012526	0.031529568
123	0xbb72a12b	-0.0037022333
124	0x3cb3b982	0.021939043
125	0x3d074594	0.03302534
126	0x3c23a35d	0.009987679
127	0x3cd5e0ef	0.026108233
128	0xbd343764	-0.043998137
129	0xbd03db1b	-0.032191377
130	0x3d84e1e7	0.064884
131	0x3e1dd655	0.15413792
132	0x3e262c03	0.16227727
133	0x3d5720f8	0.052521676
134	0xbd68148a	-0.056660213
135	0x3d5c3259	0.053758953
136	0x3d68689d	0.056740392
137	0x3e243a39	0.16037835
138	0x3e164949	0.14676394
139	0x3d5dc38e	0.054141574
140	0xbd7ee3d1	-0.06222898
141	0xbd51882c	-0.051155254
142	0x3b7f31c1	0.0038939568
143	0x3de50d68	0.11184198
144	0x3de8c11b	0.11364957
145	0x3cbedcf3	0.023298716
146	0xbd5a0798	-0.0532299
147	0x3b8a5596	0.0042216284
148	0xbd5814b3	-0.052754115
149	0x3d30a38f	0.04312473
150	0x3d34d11e	0.044144742
151	0xbcab749b	-0.020929625
152	0x3b9fb81f	0.004874244
153	0xbb501bcd	-0.0031754852
154	0x3d5dc8e5	0.054146666
155	0x3c5a0e47	0.013309068
156	0x3d2a5764	0.04158725
157	0xbd1d4c9a	-0.03840313
158	0x3cfddb76	0.030988436
159	0xbc3fe2c2	-0.011711778
160	0x3d9e70ec	0.07736382
161	0x3dd6585a	0.104660705
162	0x3cdbbce8	0.026823476
163	0xbc8268ad	-0.015919054
164	0xbd3dc403	-0.04632951
165	0xbbd7e4ae	-0.00658854
166	0x3d480971	0.04883713
167	0x3d705905	0.058678646
168	0x3d9fd2b2	0.07803859
169	0x3d1d57ec	0.038413927
170	0xbd43c122	-0.047791608
171	0x3d1593b3	0.03651781
172	0x3d9453cf	0.07242548
173	0x3da85beb	0.08220657
174	0xbca77a31	-0.020444008
175	0xbbc0de3c	-0.0058858674
176	0x3d517c1b	0.051143747
177	0xbd20df9e	-0.039275758
178	0x3cc1ee6e	0.023673262
179	0xbccad3c0	-0.024759173
180	0x3dc61a0f	0.09672939
181	0x3d9cdf76	0.07659809
182	0x3de9f8d5	0.11424414
183	0x3c14e089	0.0090867365
184	0xbcb0e607	-0.02159406
185	0x3d56f9a3	0.052484166
186	0x3e1296e5	0.14315374
187	0x3e1a7d2d	0.15086813
188	0x3dbb12b7	0.09134429
189	0x3d45349a	0.048145868
190	0xbb09b8dd	-0.0021014728
191	0xbcef0b0c	-0.029180072
192	0x3cb49309	0.022042768
193	0x3d626c5d	0.055279125
194	0x3d20f0eb	0.039292257
195	0x3caeca4e	0.0213367
196	0xbd143f0e	-0.036192946
197	0xbd75ec08	-0.06003955
198	0xbd3e8ebc	-0.04652284
199	0x3cbd06e3	0.023074573
200	0xbcaa2db9	-0.020773755
201	0xbdbb72b2	-0.09152736
202	0xbdbc3907	-0.091905646
203	0xbccc7ea5	-0.024962733
204	0xbb2630bb	-0.0025358635
205	0x3cbc4d2a	0.022986013
206	0xbd0f142e	-0.034931354
207	0xbcfdd4f6	-0.030985337
208	0xbd84e15a	-0.06488295
209	0xbd4e574f	-0.050376233
210	0x3dac9cb5	0.08428327
211	0x3cfce204	0.030869491
212	0xbd864ae0	-0.0655725
213	0xbd581a90	-0.052759707
214	0xbd5470fa	-0.051865555
215	0xbd1192a4	-0.035540238
216	0x3d9026e1	0.070386656
217	0x3da16ff7	0.07882684
218	0xbb87c37a	-0.0041431757
219	0xbcf7cd6f	-0.030249326
220	0xbdc6893a	-0.09694143
221	0xbd360701	-0.044440273
222	0x3d2dea6c	0.04245989
223	0x3d9ddedc	0.07708523
224	0x3d478490	0.048710406
225	0x3c5d32e2	0.013500901
226	0xbd58aecc	-0.052901074
227	0xbcd7eea1	-0.026358904
228	0x3bbbaffa	0.005727765
229	0x3cc3d5a1	0.023905577
230	0xbd0a7ce4	-0.03381051
231	0xbcef840e	-0.029237773
232	0x39bb6c37	0.00035748046
233	0xbc47d529	-0.012196817
234	0xbcab9bed	-0.020948375
235	0x3d18e77f	0.037330147
236	0x3d297335	0.041369636
237	0x3d96b932	0.07359542
238	0x3c4adeda	0.0123822335
239	0xbb1185d1	-0.0022205005
240	0x3d660a9a	0.056162454
241	0x3dc8755d	0.0978801
242	0x3dab09c4	0.08351472
243	0x3d7b8de7	0.061414625
244	0x3ccaca7d	0.024754757
245	0x3c29fdd9	0.010375463
246	0xbcfcbfb8	-0.030853137
247	0x3c8ede9e	0.017440137
248	0xbcb819bf	-0.022473214
249	0xbc1e323d	-0.009655532
250	0xbbb0dd71	-0.0053974916
251	0x3cc56680	0.024096727
252	0xbd4779bf	-0.04870009
253	0x3d6d9db6	0.058011733
254	0x3ccd7b18	0.02508311
255	0x3c26bb90	0.010176554

bias f4 [32]
0	0xbb6f6208	-0.0036526937
1	0xbca063bc	-0.019578807
2	0x3a80d59e	0.0009829288
3	0x3d182bac	0.037151024
4	0x3d4177df	0.04723346
5	0x3cf4e7e9	0.02989574
6	0x3d815eaf	0.063168876
7	0x3c9959aa	0.018719513
8	0x3d2cfa42	0.042230852
9	0x3ced1a1e	0.028943118
10	0xbce2329d	-0.027612025
11	0x3d8ea2aa	0.069646195
12	0x3d43ad78	0.047772855
13	0x3d291ee5	0.04128923
14	0x3cbbbea9	0.022918062
15	0x3d3931fb	0.04521368
16	0x3c03790f	0.008024468
17	0xbbfe8625	-0.007767456
18	0x3d54c497	0.051945295
19	0x3bb846e1	0.005623684
20	0xbc6cef5c	-0.014461365
21	0x3d1638ad	0.036675144
22	0xbd09ee58	-0.033674568
23	0x3d5fe0e1	0.05465782
24	0x3d2d680c	0.042335555
25	0xbd21f6da	-0.039542057
26	0xbc25a7e5	-0.01011083
27	0xbca86b9e	-0.020559128
28	0xbca82b57	-0.020528479
29	0x3c287e17	0.010283968
30	0xbd027472	-0.031849332
31	0xbc9e96c0	-0.019358993

weight f4 [128, 32, 5, 5]
0	0xbd1b2199	-0.037873838
1	0x3c952b27	0.018209053
2	0x3d41d48b	0.047321837
3	0x3d2262db	0.039645057
4	0xbb20b17d	-0.0024519854
5	0xbcdfc2e7	-0.027314616
6	0x3b427f7a	0.0029678033
7	0x3d0af242	0.03392244
8	0x3bf2b8eb	0.007407298
9	0x3ce3438a	0.027742166
10	0xbcaa5c61	-0.020796003
11	0xbcd09aba	-0.025464404
12	0xbc2bb48d	-0.010480058
13	0x3cfa647d	0.030565495
14	0xbd25dbf1	-0.040492956
15	0xbd16827f	-0.036745545
16	0xbb2a51d3	-0.0025988712
17	0xbce336f3	-0.027736163
18	0xbc5cb0c4	-0.013469879
19	0xbcb57b96	-0.022153657
20	0xbb23ab38	-0.002497388
21	0xba86f2ee	-0.0010295787
22	0xbc92b65d	-0.017909223
23	0xbca90ea4	-0.020636864
24	0x3cb46b55	0.022023836
25	0x3c61c077	0.013778797
26	0xbd0beed4	-0.03416331
27	0xbc1cdadc	-0.0095736645
28	0x3c8c3c14	0.017118491
29	0xbcf04085	-0.02932764
30	0x3b75ecb5	0.0037525122
31	0xbc587b23	-0.013212952
32	0x3ba0b7fc	0.004904745
33	0xbc9672ff	-0.018365381
34	0x3d229fe0	0.03970325
35	0xbc759484	-0.014989022
36	0x3ba6846b	0.0050817034
37	0xbcab2c6e	-0.02089521
38	0xb9eb64e3	-0.0004489786
39	0x3c955624	0.018229552
40	0xbbb982bd	-0.005661337
41	0xbcf9b0f9	-0.030479895
42	0xbc6a4803	-0.0142993955
43	0x3cc5b9d5	0.024136463
44	0x3ce8654e	0.028368618
45	0x3cdc58e5	0.026897857
46	0xbcf6abdc	-0.030111246
47	0x3d0a2780	0.033729076
48	0xbcdd5a0d	-0.027020479
49	0x3ba25df9	0.00495505
50	0xbce8b45f	-0.02840632
51	0x3ce2fbe3	0.027708
52	0x3cb98932	0.022648428
53	0xbc957b60	-0.018247306
54	0xbca0d60c	-0.019633316
55	0x3cd35379	0.025796639
56	0x3c661783	0.014043692
57	0x3c65cebb	0.014026339
58	0xbb4e92fb	-0.0031520713
59	0x3cae7401	0.02129555
60	0xbd0febaf	-0.035136875
61	0x3c84af68	0.016196921
62	0x3cdd3ca6	0.027006458
63	0xba4ab5f5	-0.0007732802
64	0xbcfe5a03	-0.03104878
65	0xbca7d335	-0.020486454
66	0x3bf18934	0.007371092
67	0xbce30af7	-0.02771519
68	0xbce89a27	-0.028393818
69	0x3ccc151f	0.024912415
70	0x3b892dc8	0.0041863658
71	0xbd07e728	-0.033179432
72	0x3c809892	0.015697751
73	0xbb801e42	-0.003909857
74	0xbce78d1f	-0.028265534
75	0xbd074115	-0.03302105
76	0xbc399373	-0.011326659
77	0xbd13b08e	-0.036057048
78	0xbca30698	-0.019900605
79	0x3bb79682	0.0056026587
80	0xbbfc0afa	-0.007691738
81	0xbc992fbb	-0.018699517
82	0xbcf2364f	-0.029566912
83	0xbd2723f2	-0.040805764
84	0xbc19c62e	-0.009385629
85	0xbcb31c2e	-0.021864023
86	0xbd2c5cf9	-0.042080853
87	0x3b8fd8c8	0.004389856
88	0xbcc9f93c	-0.024654977
89	0xbd1d37c8	-0.038383275
90	0xbc9bd6bc	-0.019023292
91	0x3cf7a793	0.030231273
92	0xbcc63f84	-0.024200208
93	0x3c97fc49	0.018552916
94	0xbcf22476	-0.029558402
95	0xbce5fac6	-0.02807368
96	0xbc9f96dd	-0.019481117
97	0x3ca57ea1	0.020201983
98	0x3c2e9ae1	0.010657043
99	0xbc6a4062	-0.014297577
100	0xbccddbf1	-0.02512929
101	0xbb94a441	-0.004536182
102	0x3d018cf8	0.03162858
103	0x3cabd971	0.020977708
104	0x3cc89e2d	0.024489487
105	0x3b157298	0.00228039
106	0xbc5782af	-0.013153716
107	0x3d1f6606	0.038915657
108	0xbb77cc0a	-0.0037810826
109	0xbce7bde9	-0.028288798
110	0xbd0f5fa6	-0.035003327
111	0x3ac19e77	0.0014771958
112	0xbc644841	-0.013933242
113	0x39f12d97	0.0004600107
114	0xbca8fb65	-0.020627687
115	0xbc43c1e0	-0.011948079
116	0xbc16ad6e	-0.009196622
117	0x3c67af67	0.01414094
118	0xbc9f80c7	-0.019470586
119	0x3cce6682	0.025195364
120	0xbbfa7130	-0.0076428875
121	0xbcef9a29	-0.029248314
122	0x3c6750d3	0.014118391
123	0xbce09594	-0.027415074
124	0x3ca407de	0.020023283
125	0x3c2bec5f	0.010493367
126	0x3cec8edc	0.028876714
127	0xbc37edda	-0.011226142
128	0xbc40a21b	-0.011757399
129	0x3b390bb8	0.0028235745
130	0x3b69b92b	0.0035663347
131	0xbcb90642	-0.022585992
132	0xbc83eea9	-0.016105013
133	0xbca4bcdd	-0.020109588
134	0x3c34a3b2	0.011025356
135	0x3b958cb8	0.004563894
136	0x3c86828c	0.016419671
137	0xbcbbfb6b	-0.022947034
138	0xbbbb547b	-0.005716858
139	0x3a1728e6	0.0005766287
140	0xbcd9dd35	-0.026594738
141	0xbaec4d2b	-0.0018028369
142	0x3cc0e624	0.02354724
143	0xbc3b261b	-0.011422659
144	0xbbd338b5	-0.006445969
145	0x3ca8bd18	0.02059798
146	0xbd06b75f	-0.03288972
147	0xbc287810	-0.010282531
148	0xbcdcd0bb	-0.026955
149	0xbcbc0a71	-0.022954198
150	0xbc992c6c	-0.01869794
151	0x3d1b5008	0.03791812
152	0x3c630990	0.01385726
153	0xbc9dc567	-0.019259168
154	0xbb061a8f	-0.0020462607
155	0xbcd552d3	-0.02604047
156	0x3c2091b0	0.00980036
157	0x3cd70d8d	0.026251579
158	0x3b218c6a	0.0024650344
159	0xbce77e78	-0.028258547
160	0x3b186070	0.002325084
161	0xbce2edf4	-0.027701356
162	0xbc9bad94	-0.019003667
163	0xbce9b482	-0.028528456
164	0xbcfe0f58	-0.031013176
165	0x3ca5f669	0.0202591
166	0xbc2f901c	-0.010715511
167	0x3cde041d	0.02710157
168	0xbcd9e41c	-0.026598029
169	0xbc38ddcf	-0.011283352
170	0x3ccbb664	0.024867244
171	0xbc99a1c7	-0.0187539
172	0x3bc2ace2	0.0059410194
173	0xbc9a940b	-0.01886942
174	0x3bdff743	0.006834896
175	0xbcbd0490	-0.023073465
176	0xbbb97b3d	-0.005660443
177	0x3cd81558	0.026377365
178	0x3cf1ba80	0.029507875
179	0x3cb955bf	0.022623895
180	0xbcac0718	-0.020999476
181	0x3ca4100e	0.020027187
182	0x3cddfdda	0.027098585
183	0xbb99c45d	-0.004692598
184	0x3c75c3bd	0.015000281
185	0x3cf576ab	0.029963812
186	0x3ca1efe1	0.019767703
187	0xbc8d71c4	-0.017266162
188	0x3d3128b7	0.04325172
189	0x3cd8b816	0.026454967
190	0x3cd93d7d	0.026518578
191	0xbb58eb1e	-0.0033099125
192	0x3c262b69	0.010142186
193	0xbcf99744	-0.030467637
194	0xbcd37859	-0.025814222
195	0x3be8aebc	0.007100908
196	0xbb324291	-0.0027200321
197	0x3b0b23ef	0.0021231135
198	0x3d080a5f	0.033213016
199	0x3b4dd606	0.0031408085
200	0x3d3abf68	0.045592695
201	0xbce6ad91	-0.028158935
202	0xbc8c8bed	-0.017156566
203	0xbd00e3ab	-0.03146712
204	0xbb00c987	-0.001965137
205	0xbc905eb7	-0.017623289
206	0x3c9eca6f	0.019383637
207	0x3c94f3b4	0.018182613
208	0xbb63f06e	-0.0034780758
209	0xb9f0ef09	-0.00045954462
210	0x3c85622e	0.016282167
211	0x3a8c022c	0.00106818
212	0xbc6fdade	-0.014639584
213	0x3cc28a09	0.02374746
214	0xbcf6f2eb	-0.03014513
215	0xbb3e464d	-0.0029033602
216	0x3ba60796	0.0050668223
217	0x3d12aaae	0.035807304
218	0x3ce567e2	0.028003637
219	0xbcce75a2	-0.025202576
220	0xbc2d75c2	-0.010587158
221	0x3ce478fa	0.027889717
222	0xbc31affa	-0.010845179
223	0x3d10de99	0.035368536
224	0x3d051a8f	0.03249603
225	0x3cf86302	0.030320648
226	0xbcf9715f	-0.030449567
227	0xbbd3fbbc	-0.006469218
228	0xbb21c460	-0.00246837
229	0xbca70b9f	-0.020391284
230	0xbb9a54d2	-0.0047098184
231	0x3c9f715a	0.01946323
232	0xbd0a1e96	-0.033720575
233	0xbc3a816f	-0.011383398
234	0x3a55f53e	0.0008161849
235	0x3c291104	0.010318998
236	0x3c9d9977	0.019238217
237	0x3ba060e1	0.0048943614
238	0xbcf01fba	-0.029312003
239	0x3cf26429	0.029588776
240	0x3c8592d9	0.016305374
241	0xbca99725	-0.020701954
242	0x3af88b00	0.0018962324
243	0x3c3e9632	0.011632489
244	0x3ca81303	0.020516878
245	0xbc3918bb	-0.0112974
246	0x3c323e5e	0.010879127
247	0x3c739619	0.014867329
248	0xbcd20b75	-0.025640229
249	0xbb9b03cc	-0.004730677
250	0x3d0596a9	0.032614384
251	0x3cc90f01	0.024543287
252	0xbd1b7778	-0.03795573
253	0xbcfbfc95	-0.030760089
254	0xbca9d33c	-0.020730607
255	0x3c10123f	0.008793413

bias f4 [128]
0	0x3c86c9d7	0.016453667
1	0xbc5ada72	-0.0133577455
2	0xbcab0853	-0.020877993
3	0xbb648a40	-0.0034872442
4	0xbc540eae	-0.012942953
5	0xbc574220	-0.013138324
6	0x3cb857db	0.02250283
7	0xbcb0ab5d	-0.021566087
8	0xbbb24f8e	-0.0054416126
9	0x3c160fb4	0.009159017
10	0x3c1dbd93	0.009627718
11	0xbd03ae5d	-0.032148708
12	0xbd098231	-0.033571426
13	0xba57c472	-0.0008230872
14	0xbc812fe4	-0.015769906
15	0xbab505b3	-0.0013810903
16	0x3ca48b72	0.020086024
17	0xbcb83ca5	-0.022489855
18	0xbc79fb49	-0.015257665
19	0xbcbb177c	-0.022838347
20	0x3cbc4529	0.022982197
21	0x3ceb2c47	0.028707637
22	0xbc10b429	-0.008832016
23	0xbcee0b0e	-0.029058006
24	0xbbdf46e0	-0.006813869
25	0xbceca917	-0.028889222
26	0x3c022275	0.0079427855
27	0xbc6b438d	-0.014359367
28	0x3ce209fa	0.027592648
29	0x3c8c76f8	0.017146572
30	0xbd13ae18	-0.0360547
31	0xbcca5451	-0.024698408
32	0x398fc872	0.0002742443
33	0x3cec3832	0.02883539
34	0x3ab2189d	0.0013587658
35	0x3c835d73	0.016035771
36	0xbd09456c	-0.03351347
37	0xbc8f5149	-0.017494814
38	0x3c233d8a	0.0099634025
39	0xbc634d45	-0.013873403
40	0x3cadb5fe	0.021204945
41	0x3b67f1ad	0.0035391853
42	0x3ccac5d3	0.024752533
43	0xbc361ab4	-0.011114765
44	0x3cb1dc18	0.021711394
45	0xbb4488fd	-0.0029988878
46	0xbc2f27be	-0.010690628
47	0x3cf3c2e1	0.029756011
48	0xbd1729e4	-0.036905184
49	0xbd1075da	-0.035268642
50	0xbd082830	-0.03324145
51	0x3cf96772	0.030444834
52	0x3cc7f68f	0.02440956
53	0xbd254d7a	-0.04035709
54	0xbc7ab7e8	-0.015302636
55	0x3ce961af	0.028488962
56	0xbcf26bf2	-0.029592488
57	0x3d05ef17	0.032698717
58	0x3cad581c	0.021160178
59	0xbcee36c6	-0.029078852
60	0xbd0c9769	-0.034324083
61	0xba69eaf6	-0.00089232565
62	0xbcdb4719	-0.0267673
63	0x3ccf5edb	0.025313785
64	0x3bdc0466	0.0067143915
65	0x3ba413a2	0.005007223
66	0xbcca1a54	-0.024670757
67	0x3c93b2ee	0.018029656
68	0x3c3b1921	0.011419565
69	0xbc9de747	-0.01927532
70	0xbb87bf5d	-0.0041426853
71	0x3cb7d0ee	0.022438493
72	0xbc92a4a9	-0.017900782
73	0x3b6d77d9	0.0036234765
74	0x3c3b30d6	0.011425218
75	0x3ccb997e	0.024853464
76	0xbcbea3ed	-0.023271525
77	0xbc400af4	-0.011721361
78	0x3c0081fc	0.007843491
79	0x3ca30c69	0.019903379
80	0x3d0c4463	0.034244906
81	0x3b5a2434	0.003328574
82	0xbd120925	-0.035653252
83	0xbcfdeb41	-0.030995967
84	0xbd08746c	-0.033314154
85	0x3cdc289f	0.026874838
86	0x3c51dbb4	0.012808729
87	0xbcb84e36	-0.022498231
88	0x3c17e203	0.009270194
89	0xbd04e224	-0.032442227
90	0xbc9a2749	-0.01881756
91	0xbcca9a90	-0.024731904
92	0xbba365a2	-0.004986481
93	0x3cf7cff2	0.030250523
94	0xbc6906b4	-0.01422279
95	0x3c8d2751	0.017230662
96	0x3ce92e6e	0.028464522
97	0x3bd0adf0	0.006368391
98	0x3c55b4df	0.013043611
99	0xbc45cb6c	-0.012072425
100	0xbc7fc7e5	-0.015611623
101	0xbcad70bd	-0.021171922
102	0xbd0ba57b	-0.03409336
103	0xbcce9f6c	-0.025222503
104	0x3d01c132	0.031678386
105	0x3be2c625	0.0069205933
106	0xbb7d7e47	-0.0038680003
107	0xbca03b84	-0.01955963
108	0xbcac9a02	-0.02106953
109	0xbbbbe9e5	-0.0057346695
110	0x3ce84ca0	0.02835685
111	0x3984c5f2	0.00025324483
112	0x3cb7077f	0.022342442
113	0xbcc868d8	-0.024464056
114	0x3c20bbdf	0.009810417
115	0x3c82ee9f	0.015982924
116	0x3c203109	0.009777316
117	0xbd20f3d8	-0.039295048
118	0x3c95feb5	0.01830993
119	0x3ce6158b	0.028086444
120	0x3a817722	0.0009877423
121	0xbbcd6b24	-0.0062688757
122	0x3ce86116	0.028366607
123	0xbb8d25f4	-0.004307503
124	0xbce95f9e	-0.028487977
125	0xbc54a0ab	-0.012977759
126	0xbb847219	-0.004041922
127	0x3ce92f07	0.028464807

weight f4 [10, 2048]
0	0x3c6a040a	0.01428319
1	0x3c834bcc	0.016027354
2	0xbc264015	-0.010147114
3	0xbc24d052	-0.010059433
4	0x3c30346b	0.010754685
5	0x3b93e4f8	0.004513379
6	0x3c6230d1	0.013805584
7	0x3cf322e6	0.029679727
8	0xbba93ea1	-0.0051649367
9	0xbc721576	-0.0147756245
10	0x3d228a4f	0.039682683
11	0xbb9e10d9	-0.0048237857
12	0x3c70e6c7	0.014703459
13	0xbce6ce37	-0.028174503
14	0x3babf000	0.005247116
15	0xbc64b395	-0.013958831
16	0x3c7c6a5b	0.0154062165
17	0xba12a477	-0.0005593965
18	0x3c2e514d	0.010639501
19	0xbc5bbc5b	-0.013411607
20	0xbafdb83c	-0.0019357274
21	0xbc391ac8	-0.011297889
22	0x3cf8adaf	0.030356256
23	0x3c8f07ef	0.017459838
24	0x3d44ae72	0.048017927
25	0xbc4a9929	-0.012365618
26	0xbb818c03	-0.0039534583
27	0xbce88366	-0.028382968
28	0x3c506eea	0.0127217565
29	0xbcd6774b	-0.02617993
30	0xbbfe95dd	-0.00776933
31	0xbb6a612e	-0.003576349
32	0xbba81aa8	-0.005130131
33	0x3cd03d1c	0.025419764
34	0xbc1fab6e	-0.009745462
35	0xbcc3081a	-0.023807574
36	0xbca24bbb	-0.019811502
37	0x3c3473d6	0.011013946
38	0xbc532f99	-0.012889766
39	0xbc71a0d4	-0.014747817
40	0xbc6fcd00	-0.014636278
41	0x3ca7795f	0.020443616
42	0x3cc174e7	0.023615314
43	0x3d1847d8	0.03717789
44	0x3c8b9bb5	0.01704202
45	0xbc803d38	-0.015654191
46	0x3c9e16c2	0.019297961
47	0xbc6fd532	-0.014638232
48	0xbb7ab01e	-0.0038251947
49	0xbc295838	-0.010335974
50	0xbb9bd43b	-0.0047555245
51	0x3cfc9036	0.030830484
52	0x3c9cbd39	0.019133197
53	0x3cd3d047	0.02585615
54	0xbd0f6f60	-0.035018325
55	0x3d12bbe6	0.035823725
56	0x3cab2a0b	0.020894071
57	0xbd0ada2b	-0.033899467
58	0xbd540216	-0.0517598
59	0xbbde82cb	-0.006790494
60	0x3ca1c969	0.01974936
61	0xbaf2d9b6	-0.0018528018
62	0x3c2c4b75	0.010516037
63	0xbb979576	-0.0046259714
64	0xbc20b130	-0.00980787
65	0x3ca9873a	0.020694364
66	0xbbd33c72	-0.0064464146
67	0xbca92a16	-0.020649951
68	0xbc589294	-0.013218541
69	0xbc8c60b8	-0.017135963
70	0xbcac7c74	-0.021055438
71	0xbd44e983	-0.048074257
72	0xbd35d6bb	-0.044394236
73	0x3c4a3ccf	0.012343599
74	0xbc7a365a	-0.0152717475
75	0x3cd424c5	0.02589644
76	0xbb9302f8	-0.004486438
77	0xbc66092a	-0.014040271
78	0xbc03ee18	-0.008052371
79	0xb957903e	-0.00020557732
80	0xbc899d61	-0.016798677
81	0xbc167917	-0.0091841435
82	0x3bf73de3	0.0075452193
83	0x3bbfcfeb	0.005853643
84	0x3c48e8ae	0.012262506
85	0x3cd78552	0.02630869
86	0xbcabe94e	-0.020985272
87	0xbd16ec34	-0.036846355
88	0xbcee1b47	-0.029065741
89	0xbd2b6ab8	-0.04184982
90	0x3cb8cfcf	0.022560028
91	0xbc34185e	-0.010992138
92	0xbb9d586c	-0.0048018005
93	0x3d17e635	0.037084777
94	0x3c97748e	0.018488195
95	0xbd2874cc	-0.04112701
96	0x3bb34076	0.005470331
97	0x3c18b55a	0.009320581
98	0xbccd74cf	-0.025080113
99	0x3c414d0e	0.011798156
100	0xba66193e	-0.0008777565
101	0x3b1c62e0	0.0023862645
102	0x3cbacc1e	0.022802409
103	0x3d2ea1eb	0.042634886
104	0xbae2d655	-0.0017306308
105	0x3d44420a	0.047914542
106	0x3b807418	0.0039200895
107	0xba73e600	-0.0009303987
108	0x3c932a76	0.017964583
109	0xbd03c480	-0.03216982
110	0xbcd48ad2	-0.025945101
111	0x3b2fd2cb	0.0026828523
112	0x3bdacc41	0.006677181
113	0x3c2955b2	0.010335373
114	0xbb01d77a	-0.0019812272
115	0xb9fb8f80	-0.00047981367
116	0xbc9a5373	-0.01883862
117	0x3c610bc4	0.013735715
118	0xbc0ad4e5	-0.00847361
119	0x3c9e6921	0.019337239
120	0xbb165020	-0.0022935942
121	0x3d1ca16e	0.03823989
122	0xbbbe519e	-0.0058080694
123	0xbca11d89	-0.019667404
124	0x3ab74fae	0.0013985538
125	0x3cacb740	0.021083474
126	0xbb9ad859	-0.0047254977
127	0xbbb1f46c	-0.0054307487
128	0xbc029dae	-0.007972164
129	0x3c90cf13	0.017676866
130	0x3c1bce12	0.00950958
131	0xbca438ab	-0.020046553
132	0x3bf0dee5	0.00735079
133	0xbcbf9623	-0.02338702
134	0x3c2906e4	0.010316584
135	0x3cf9a182	0.03047252
136	0xbcc255c4	-0.023722537
137	0xb60cdc8a	-2.0989996e-06
138	0xbd63a231	-0.0555746
139	0xbd43d899	-0.047813985
140	0xbc73264f	-0.014840676
141	0x3cb50dd6	0.022101324
142	0x3c1c055a	0.00952276
143	0xbc86b237	-0.016442401
144	0x3ba9fd84	0.005187692
145	0x3c173374	0.009228576
146	0xbb504226	-0.0031777709
147	0x3c8b1ebf	0.016982434
148	0xbc99ca4b	-0.018773219
149	0xbd51dcb0	-0.051235855
150	0x3d046727	0.032324936
151	0xbcc06378	-0.02348493
152	0x3cf08f56	0.029365223
153	0x3cb20661	0.021731557
154	0xbd085f80	-0.0332942
155	0xbc3fb6af	-0.01170127
156	0xbcd58eb4	-0.026069023
157	0x3d23ea37	0.040018287
158	0xbc2e38b6	-0.010633638
159	0xbb94d835	-0.0045423754
160	0x3c7ce618	0.015435718
161	0xbb86a639	-0.0041091708
162	0x3c4b392c	0.012403768
163	0x3c3bddce	0.011466457
164	0x3c5eb647	0.013593263
165	0xbd814056	-0.06311099
166	0xbd2436dd	-0.040091384
167	0xbd307ba8	-0.043086678
168	0x3c6a3abf	0.014296233
169	0xbceec323	-0.029145783
170	0xba967ac9	-0.0011480685
171	0x3bd5d537	0.0065256613
172	0xbc1f7a4c	-0.009733748
173	0x3d07b381	0.033130173
174	0xbd5a5070	-0.053299367
175	0xbcae0946	-0.021244656
176	0x3b987fed	0.004653922
177	0x3d1ef2e0	0.038805842
178	0x3bff3b5c	0.0077890586
179	0xbcd5dd92	-0.02610663
180	0xbccd073f	-0.02502787
181	0x3c7e3858	0.015516363
182	0x3cb0328e	0.021508481
183	0xbbf19bca	-0.007373308
184	0xbcf8d999	-0.030377196
185	0x3d148196	0.036256395
186	0x3d028d9f	0.03187334
187	0xbb998dae	-0.004686079
188	0x3bb7a43d	0.0056042955
189	0xb964841f	-0.00021792993
190	0x3bb1f81c	0.0054311883
191	0x3ccb68ae	0.024830189
192	0xbc369a46	-0.01114518
193	0xbb870fde	-0.0041217646
194	0x3c245e17	0.010032198
195	0xba8cb5d4	-0.0010735341
196	0x3c1a7cf6	0.009429207
197	0x3cc87d7e	0.024473902
198	0x3c718276	0.014740577
199	0x3cf8f9da	0.030392576
200	0xbc7d4211	-0.015457646
201	0x3bdc0c23	0.006715314
202	0x3d45ae3d	0.04826187
203	0x3c4967a9	0.012292781
204	0x3cb2ceb0	0.021827072
205	0x3c8ae560	0.016955078
206	0xbd548629	-0.051885758
207	0xbb865d12	-0.0041004503
208	0x3c9ca9be	0.019123908
209	0x3b1beb53	0.0023791387
210	0xbb9eed34	-0.004850054
211	0x3cf76343	0.030198699
212	0xbcc66dcf	-0.024222283
213	0xbb7217b3	-0.0036940395
214	0xbce618d6	-0.028088015
215	0xbb8802a2	-0.0041507045
216	0x3cf4acc7	0.029867543
217	0x3ab6499b	0.0013907434
218	0x3c320173	0.010864603
219	0xbd04501c	-0.03230296
220	0xbc188dbd	-0.009311137
221	0xbb04d078	-0.0020265859
222	0xbbda95f1	-0.0066707064
223	0x3c2ce70e	0.010553135
224	0x3cbae529	0.02281435
225	0xbd14a082	-0.036285885
226	0xbca22abc	-0.019795768
227	0xbc147b09	-0.009062537
228	0x3caeb6ab	0.021327337
229	0x38d3fe00	0.00010108575
230	0xbc22806e	-0.009918315
231	0x3c7b737d	0.015347359
232	0xbc485050	-0.012226179
233	0x3b5a1c54	0.0033281045
234	0xba963a29	-0.0011461425
235	0xbc20288b	-0.009775291
236	0x39654f1e	0.00021868615
237	0x3c005a7b	0.007834072
238	0x3b9d7334	0.004804993
239	0xbbaedaab	-0.005336126
240	0xbc0caf30	-0.00858669
241	0x3a2f4f7f	0.0006687566
242	0x39632497	0.00021662038
243	0xbbd99384	-0.0066398997
244	0x3bb547a4	0.005532222
245	0xbcf9b66f	-0.030482499
246	0x3d48c4ab	0.049015682
247	0xbcd4d310	-0.025979549
248	0xba332fb0	-0.0006835414
249	0xbce3fe45	-0.027831206
250	0xbd97a049	-0.07403619
251	0xbc6a0949	-0.01428444
252	0xbcb8a499	-0.022539424
253	0x394469b2	0.00018731391
254	0x3cabcdf4	0.02097223
255	0xbc6e525b	-0.014546002

bias f4 [10]
0	0x3c0c0edc	0.008548465
1	0xbab41c62	-0.0013741369
2	0x3b10f6ae	0.0022119689
3	0x39ef45a2	0.00045637513
4	0x3c85c450	0.01632896
5	0xbc8478ee	-0.016170945
6	0xbad1cf92	-0.0016007295
7	0x3c9ed917	0.019390626
8	0x3c9271e6	0.017876577
9	0xbc7bbcd6	-0.015364846
